node {
  name: "global_step/Initializer/zeros"
  op: "Const"
  attr {
    key: "_class"
    value {
      list {
        s: "loc:@global_step"
      }
    }
  }
  attr {
    key: "_output_shapes"
    value {
      list {
        shape {
        }
      }
    }
  }
  attr {
    key: "dtype"
    value {
      type: DT_INT64
    }
  }
  attr {
    key: "value"
    value {
      tensor {
        dtype: DT_INT64
        tensor_shape {
        }
        int64_val: 0
      }
    }
  }
}
node {
  name: "global_step"
  op: "VarHandleOp"
  attr {
    key: "_class"
    value {
      list {
        s: "loc:@global_step"
      }
    }
  }
  attr {
    key: "_output_shapes"
    value {
      list {
        shape {
        }
      }
    }
  }
  attr {
    key: "container"
    value {
      s: ""
    }
  }
  attr {
    key: "dtype"
    value {
      type: DT_INT64
    }
  }
  attr {
    key: "shape"
    value {
      shape {
      }
    }
  }
  attr {
    key: "shared_name"
    value {
      s: "global_step"
    }
  }
}
node {
  name: "global_step/IsInitialized/VarIsInitializedOp"
  op: "VarIsInitializedOp"
  input: "global_step"
  attr {
    key: "_output_shapes"
    value {
      list {
        shape {
        }
      }
    }
  }
}
node {
  name: "global_step/Assign"
  op: "AssignVariableOp"
  input: "global_step"
  input: "global_step/Initializer/zeros"
  attr {
    key: "dtype"
    value {
      type: DT_INT64
    }
  }
}
node {
  name: "global_step/Read/ReadVariableOp"
  op: "ReadVariableOp"
  input: "global_step"
  attr {
    key: "_output_shapes"
    value {
      list {
        shape {
        }
      }
    }
  }
  attr {
    key: "dtype"
    value {
      type: DT_INT64
    }
  }
}
node {
  name: "global_step/VarIsInitializedOp"
  op: "VarIsInitializedOp"
  input: "global_step"
  attr {
    key: "_output_shapes"
    value {
      list {
        shape {
        }
      }
    }
  }
}
node {
  name: "global_step/cond"
  op: "If"
  input: "global_step/VarIsInitializedOp"
  input: "global_step"
  input: "global_step/Initializer/zeros"
  attr {
    key: "Tcond"
    value {
      type: DT_BOOL
    }
  }
  attr {
    key: "Tin"
    value {
      list {
        type: DT_RESOURCE
        type: DT_INT64
      }
    }
  }
  attr {
    key: "Tout"
    value {
      list {
        type: DT_INT64
      }
    }
  }
  attr {
    key: "_lower_using_switch_merge"
    value {
      b: true
    }
  }
  attr {
    key: "_output_shapes"
    value {
      list {
        shape {
        }
      }
    }
  }
  attr {
    key: "_read_only_resource_inputs"
    value {
      list {
        i: 1
      }
    }
  }
  attr {
    key: "else_branch"
    value {
      func {
        name: "global_step_cond_false_12"
      }
    }
  }
  attr {
    key: "output_shapes"
    value {
      list {
        shape {
        }
      }
    }
  }
  attr {
    key: "then_branch"
    value {
      func {
        name: "global_step_cond_true_11"
      }
    }
  }
}
node {
  name: "global_step/cond/Identity"
  op: "Identity"
  input: "global_step/cond"
  attr {
    key: "T"
    value {
      type: DT_INT64
    }
  }
  attr {
    key: "_output_shapes"
    value {
      list {
        shape {
        }
      }
    }
  }
}
node {
  name: "global_step/add/y"
  op: "Const"
  attr {
    key: "_output_shapes"
    value {
      list {
        shape {
        }
      }
    }
  }
  attr {
    key: "dtype"
    value {
      type: DT_INT64
    }
  }
  attr {
    key: "value"
    value {
      tensor {
        dtype: DT_INT64
        tensor_shape {
        }
        int64_val: 0
      }
    }
  }
}
node {
  name: "global_step/add"
  op: "AddV2"
  input: "global_step/cond/Identity"
  input: "global_step/add/y"
  attr {
    key: "T"
    value {
      type: DT_INT64
    }
  }
  attr {
    key: "_output_shapes"
    value {
      list {
        shape {
        }
      }
    }
  }
}
node {
  name: "list_files/file_pattern"
  op: "Const"
  device: "/device:CPU:0"
  attr {
    key: "_output_shapes"
    value {
      list {
        shape {
        }
      }
    }
  }
  attr {
    key: "dtype"
    value {
      type: DT_STRING
    }
  }
  attr {
    key: "value"
    value {
      tensor {
        dtype: DT_STRING
        tensor_shape {
        }
        string_val: "/home/ysomda/sandbox/gltool-experiment/training/files/train/*"
      }
    }
  }
}
node {
  name: "list_files/MatchingFiles"
  op: "MatchingFiles"
  input: "list_files/file_pattern"
  device: "/device:CPU:0"
  attr {
    key: "_output_shapes"
    value {
      list {
        shape {
          dim {
            size: -1
          }
        }
      }
    }
  }
}
node {
  name: "list_files/Shape"
  op: "Shape"
  input: "list_files/MatchingFiles"
  device: "/device:CPU:0"
  attr {
    key: "T"
    value {
      type: DT_STRING
    }
  }
  attr {
    key: "_output_shapes"
    value {
      list {
        shape {
          dim {
            size: 1
          }
        }
      }
    }
  }
  attr {
    key: "out_type"
    value {
      type: DT_INT32
    }
  }
}
node {
  name: "list_files/strided_slice/stack"
  op: "Const"
  device: "/device:CPU:0"
  attr {
    key: "_output_shapes"
    value {
      list {
        shape {
          dim {
            size: 1
          }
        }
      }
    }
  }
  attr {
    key: "dtype"
    value {
      type: DT_INT32
    }
  }
  attr {
    key: "value"
    value {
      tensor {
        dtype: DT_INT32
        tensor_shape {
          dim {
            size: 1
          }
        }
        int_val: 0
      }
    }
  }
}
node {
  name: "list_files/strided_slice/stack_1"
  op: "Const"
  device: "/device:CPU:0"
  attr {
    key: "_output_shapes"
    value {
      list {
        shape {
          dim {
            size: 1
          }
        }
      }
    }
  }
  attr {
    key: "dtype"
    value {
      type: DT_INT32
    }
  }
  attr {
    key: "value"
    value {
      tensor {
        dtype: DT_INT32
        tensor_shape {
          dim {
            size: 1
          }
        }
        int_val: 1
      }
    }
  }
}
node {
  name: "list_files/strided_slice/stack_2"
  op: "Const"
  device: "/device:CPU:0"
  attr {
    key: "_output_shapes"
    value {
      list {
        shape {
          dim {
            size: 1
          }
        }
      }
    }
  }
  attr {
    key: "dtype"
    value {
      type: DT_INT32
    }
  }
  attr {
    key: "value"
    value {
      tensor {
        dtype: DT_INT32
        tensor_shape {
          dim {
            size: 1
          }
        }
        int_val: 1
      }
    }
  }
}
node {
  name: "list_files/strided_slice"
  op: "StridedSlice"
  input: "list_files/Shape"
  input: "list_files/strided_slice/stack"
  input: "list_files/strided_slice/stack_1"
  input: "list_files/strided_slice/stack_2"
  device: "/device:CPU:0"
  attr {
    key: "Index"
    value {
      type: DT_INT32
    }
  }
  attr {
    key: "T"
    value {
      type: DT_INT32
    }
  }
  attr {
    key: "_output_shapes"
    value {
      list {
        shape {
        }
      }
    }
  }
  attr {
    key: "begin_mask"
    value {
      i: 0
    }
  }
  attr {
    key: "ellipsis_mask"
    value {
      i: 0
    }
  }
  attr {
    key: "end_mask"
    value {
      i: 0
    }
  }
  attr {
    key: "new_axis_mask"
    value {
      i: 0
    }
  }
  attr {
    key: "shrink_axis_mask"
    value {
      i: 1
    }
  }
}
node {
  name: "list_files/match_not_empty/y"
  op: "Const"
  device: "/device:CPU:0"
  attr {
    key: "_output_shapes"
    value {
      list {
        shape {
        }
      }
    }
  }
  attr {
    key: "dtype"
    value {
      type: DT_INT32
    }
  }
  attr {
    key: "value"
    value {
      tensor {
        dtype: DT_INT32
        tensor_shape {
        }
        int_val: 0
      }
    }
  }
}
node {
  name: "list_files/match_not_empty"
  op: "Greater"
  input: "list_files/strided_slice"
  input: "list_files/match_not_empty/y"
  device: "/device:CPU:0"
  attr {
    key: "T"
    value {
      type: DT_INT32
    }
  }
  attr {
    key: "_output_shapes"
    value {
      list {
        shape {
        }
      }
    }
  }
}
node {
  name: "list_files/ReduceJoin/Const"
  op: "Const"
  device: "/device:CPU:0"
  attr {
    key: "_output_shapes"
    value {
      list {
        shape {
          dim {
          }
        }
      }
    }
  }
  attr {
    key: "dtype"
    value {
      type: DT_INT32
    }
  }
  attr {
    key: "value"
    value {
      tensor {
        dtype: DT_INT32
        tensor_shape {
          dim {
          }
        }
      }
    }
  }
}
node {
  name: "list_files/ReduceJoin/ReduceJoin"
  op: "ReduceJoin"
  input: "list_files/file_pattern"
  input: "list_files/ReduceJoin/Const"
  device: "/device:CPU:0"
  attr {
    key: "_output_shapes"
    value {
      list {
        shape {
        }
      }
    }
  }
  attr {
    key: "keep_dims"
    value {
      b: false
    }
  }
  attr {
    key: "separator"
    value {
      s: ", "
    }
  }
}
node {
  name: "list_files/message/x"
  op: "Const"
  device: "/device:CPU:0"
  attr {
    key: "_output_shapes"
    value {
      list {
        shape {
        }
      }
    }
  }
  attr {
    key: "dtype"
    value {
      type: DT_STRING
    }
  }
  attr {
    key: "value"
    value {
      tensor {
        dtype: DT_STRING
        tensor_shape {
        }
        string_val: "No files matched pattern: "
      }
    }
  }
}
node {
  name: "list_files/message"
  op: "Add"
  input: "list_files/message/x"
  input: "list_files/ReduceJoin/ReduceJoin"
  device: "/device:CPU:0"
  attr {
    key: "T"
    value {
      type: DT_STRING
    }
  }
  attr {
    key: "_output_shapes"
    value {
      list {
        shape {
        }
      }
    }
  }
}
node {
  name: "list_files/assert_not_empty/Assert"
  op: "Assert"
  input: "list_files/match_not_empty"
  input: "list_files/message"
  device: "/device:CPU:0"
  attr {
    key: "T"
    value {
      list {
        type: DT_STRING
      }
    }
  }
  attr {
    key: "summarize"
    value {
      i: 1
    }
  }
}
node {
  name: "list_files/Identity"
  op: "Identity"
  input: "list_files/MatchingFiles"
  input: "^list_files/assert_not_empty/Assert"
  device: "/device:CPU:0"
  attr {
    key: "T"
    value {
      type: DT_STRING
    }
  }
  attr {
    key: "_output_shapes"
    value {
      list {
        shape {
          dim {
            size: -1
          }
        }
      }
    }
  }
}
node {
  name: "list_files/TensorSliceDataset"
  op: "TensorSliceDataset"
  input: "list_files/Identity"
  device: "/device:CPU:0"
  attr {
    key: "Toutput_types"
    value {
      list {
        type: DT_STRING
      }
    }
  }
  attr {
    key: "_output_shapes"
    value {
      list {
        shape {
        }
      }
    }
  }
  attr {
    key: "output_shapes"
    value {
      list {
        shape {
        }
      }
    }
  }
}
node {
  name: "list_files/Shape_1"
  op: "Shape"
  input: "list_files/Identity"
  device: "/device:CPU:0"
  attr {
    key: "T"
    value {
      type: DT_STRING
    }
  }
  attr {
    key: "_output_shapes"
    value {
      list {
        shape {
          dim {
            size: 1
          }
        }
      }
    }
  }
  attr {
    key: "out_type"
    value {
      type: DT_INT64
    }
  }
}
node {
  name: "list_files/strided_slice_1/stack"
  op: "Const"
  device: "/device:CPU:0"
  attr {
    key: "_output_shapes"
    value {
      list {
        shape {
          dim {
            size: 1
          }
        }
      }
    }
  }
  attr {
    key: "dtype"
    value {
      type: DT_INT32
    }
  }
  attr {
    key: "value"
    value {
      tensor {
        dtype: DT_INT32
        tensor_shape {
          dim {
            size: 1
          }
        }
        int_val: 0
      }
    }
  }
}
node {
  name: "list_files/strided_slice_1/stack_1"
  op: "Const"
  device: "/device:CPU:0"
  attr {
    key: "_output_shapes"
    value {
      list {
        shape {
          dim {
            size: 1
          }
        }
      }
    }
  }
  attr {
    key: "dtype"
    value {
      type: DT_INT32
    }
  }
  attr {
    key: "value"
    value {
      tensor {
        dtype: DT_INT32
        tensor_shape {
          dim {
            size: 1
          }
        }
        int_val: 1
      }
    }
  }
}
node {
  name: "list_files/strided_slice_1/stack_2"
  op: "Const"
  device: "/device:CPU:0"
  attr {
    key: "_output_shapes"
    value {
      list {
        shape {
          dim {
            size: 1
          }
        }
      }
    }
  }
  attr {
    key: "dtype"
    value {
      type: DT_INT32
    }
  }
  attr {
    key: "value"
    value {
      tensor {
        dtype: DT_INT32
        tensor_shape {
          dim {
            size: 1
          }
        }
        int_val: 1
      }
    }
  }
}
node {
  name: "list_files/strided_slice_1"
  op: "StridedSlice"
  input: "list_files/Shape_1"
  input: "list_files/strided_slice_1/stack"
  input: "list_files/strided_slice_1/stack_1"
  input: "list_files/strided_slice_1/stack_2"
  device: "/device:CPU:0"
  attr {
    key: "Index"
    value {
      type: DT_INT32
    }
  }
  attr {
    key: "T"
    value {
      type: DT_INT64
    }
  }
  attr {
    key: "_output_shapes"
    value {
      list {
        shape {
        }
      }
    }
  }
  attr {
    key: "begin_mask"
    value {
      i: 0
    }
  }
  attr {
    key: "ellipsis_mask"
    value {
      i: 0
    }
  }
  attr {
    key: "end_mask"
    value {
      i: 0
    }
  }
  attr {
    key: "new_axis_mask"
    value {
      i: 0
    }
  }
  attr {
    key: "shrink_axis_mask"
    value {
      i: 1
    }
  }
}
node {
  name: "list_files/Maximum/y"
  op: "Const"
  device: "/device:CPU:0"
  attr {
    key: "_output_shapes"
    value {
      list {
        shape {
        }
      }
    }
  }
  attr {
    key: "dtype"
    value {
      type: DT_INT64
    }
  }
  attr {
    key: "value"
    value {
      tensor {
        dtype: DT_INT64
        tensor_shape {
        }
        int64_val: 1
      }
    }
  }
}
node {
  name: "list_files/Maximum"
  op: "Maximum"
  input: "list_files/strided_slice_1"
  input: "list_files/Maximum/y"
  device: "/device:CPU:0"
  attr {
    key: "T"
    value {
      type: DT_INT64
    }
  }
  attr {
    key: "_output_shapes"
    value {
      list {
        shape {
        }
      }
    }
  }
}
node {
  name: "list_files/seed"
  op: "Const"
  device: "/device:CPU:0"
  attr {
    key: "_output_shapes"
    value {
      list {
        shape {
        }
      }
    }
  }
  attr {
    key: "dtype"
    value {
      type: DT_INT64
    }
  }
  attr {
    key: "value"
    value {
      tensor {
        dtype: DT_INT64
        tensor_shape {
        }
        int64_val: 0
      }
    }
  }
}
node {
  name: "list_files/seed2"
  op: "Const"
  device: "/device:CPU:0"
  attr {
    key: "_output_shapes"
    value {
      list {
        shape {
        }
      }
    }
  }
  attr {
    key: "dtype"
    value {
      type: DT_INT64
    }
  }
  attr {
    key: "value"
    value {
      tensor {
        dtype: DT_INT64
        tensor_shape {
        }
        int64_val: 0
      }
    }
  }
}
node {
  name: "list_files/ShuffleDataset"
  op: "ShuffleDataset"
  input: "list_files/TensorSliceDataset"
  input: "list_files/Maximum"
  input: "list_files/seed"
  input: "list_files/seed2"
  device: "/device:CPU:0"
  attr {
    key: "_output_shapes"
    value {
      list {
        shape {
        }
      }
    }
  }
  attr {
    key: "output_shapes"
    value {
      list {
        shape {
        }
      }
    }
  }
  attr {
    key: "output_types"
    value {
      list {
        type: DT_STRING
      }
    }
  }
  attr {
    key: "reshuffle_each_iteration"
    value {
      b: true
    }
  }
}
node {
  name: "MapDataset"
  op: "MapDataset"
  input: "list_files/ShuffleDataset"
  device: "/device:CPU:0"
  attr {
    key: "Targuments"
    value {
      list {
      }
    }
  }
  attr {
    key: "_output_shapes"
    value {
      list {
        shape {
        }
      }
    }
  }
  attr {
    key: "f"
    value {
      func {
        name: "__inference_Dataset_map__read_file_94"
      }
    }
  }
  attr {
    key: "output_shapes"
    value {
      list {
        shape {
        }
        shape {
        }
      }
    }
  }
  attr {
    key: "output_types"
    value {
      list {
        type: DT_STRING
        type: DT_STRING
      }
    }
  }
  attr {
    key: "preserve_cardinality"
    value {
      b: true
    }
  }
  attr {
    key: "use_inter_op_parallelism"
    value {
      b: true
    }
  }
}
node {
  name: "buffer_size"
  op: "Const"
  device: "/device:CPU:0"
  attr {
    key: "_output_shapes"
    value {
      list {
        shape {
        }
      }
    }
  }
  attr {
    key: "dtype"
    value {
      type: DT_INT64
    }
  }
  attr {
    key: "value"
    value {
      tensor {
        dtype: DT_INT64
        tensor_shape {
        }
        int64_val: 1000
      }
    }
  }
}
node {
  name: "seed"
  op: "Const"
  device: "/device:CPU:0"
  attr {
    key: "_output_shapes"
    value {
      list {
        shape {
        }
      }
    }
  }
  attr {
    key: "dtype"
    value {
      type: DT_INT64
    }
  }
  attr {
    key: "value"
    value {
      tensor {
        dtype: DT_INT64
        tensor_shape {
        }
        int64_val: 0
      }
    }
  }
}
node {
  name: "seed2"
  op: "Const"
  device: "/device:CPU:0"
  attr {
    key: "_output_shapes"
    value {
      list {
        shape {
        }
      }
    }
  }
  attr {
    key: "dtype"
    value {
      type: DT_INT64
    }
  }
  attr {
    key: "value"
    value {
      tensor {
        dtype: DT_INT64
        tensor_shape {
        }
        int64_val: 0
      }
    }
  }
}
node {
  name: "ShuffleDataset"
  op: "ShuffleDataset"
  input: "MapDataset"
  input: "buffer_size"
  input: "seed"
  input: "seed2"
  device: "/device:CPU:0"
  attr {
    key: "_output_shapes"
    value {
      list {
        shape {
        }
      }
    }
  }
  attr {
    key: "output_shapes"
    value {
      list {
        shape {
        }
        shape {
        }
      }
    }
  }
  attr {
    key: "output_types"
    value {
      list {
        type: DT_STRING
        type: DT_STRING
      }
    }
  }
  attr {
    key: "reshuffle_each_iteration"
    value {
      b: true
    }
  }
}
node {
  name: "count"
  op: "Const"
  device: "/device:CPU:0"
  attr {
    key: "_output_shapes"
    value {
      list {
        shape {
        }
      }
    }
  }
  attr {
    key: "dtype"
    value {
      type: DT_INT64
    }
  }
  attr {
    key: "value"
    value {
      tensor {
        dtype: DT_INT64
        tensor_shape {
        }
        int64_val: -1
      }
    }
  }
}
node {
  name: "RepeatDataset"
  op: "RepeatDataset"
  input: "ShuffleDataset"
  input: "count"
  device: "/device:CPU:0"
  attr {
    key: "_output_shapes"
    value {
      list {
        shape {
        }
      }
    }
  }
  attr {
    key: "output_shapes"
    value {
      list {
        shape {
        }
        shape {
        }
      }
    }
  }
  attr {
    key: "output_types"
    value {
      list {
        type: DT_STRING
        type: DT_STRING
      }
    }
  }
}
node {
  name: "MapDataset_1"
  op: "MapDataset"
  input: "RepeatDataset"
  device: "/device:CPU:0"
  attr {
    key: "Targuments"
    value {
      list {
      }
    }
  }
  attr {
    key: "_output_shapes"
    value {
      list {
        shape {
        }
      }
    }
  }
  attr {
    key: "f"
    value {
      func {
        name: "__inference_Dataset_map__preprocess_text_149"
      }
    }
  }
  attr {
    key: "output_shapes"
    value {
      list {
        shape {
          dim {
            size: -1
          }
        }
        shape {
        }
      }
    }
  }
  attr {
    key: "output_types"
    value {
      list {
        type: DT_STRING
        type: DT_STRING
      }
    }
  }
  attr {
    key: "preserve_cardinality"
    value {
      b: true
    }
  }
  attr {
    key: "use_inter_op_parallelism"
    value {
      b: true
    }
  }
}
node {
  name: "batch_size"
  op: "Const"
  device: "/device:CPU:0"
  attr {
    key: "_output_shapes"
    value {
      list {
        shape {
        }
      }
    }
  }
  attr {
    key: "dtype"
    value {
      type: DT_INT64
    }
  }
  attr {
    key: "value"
    value {
      tensor {
        dtype: DT_INT64
        tensor_shape {
        }
        int64_val: 100
      }
    }
  }
}
node {
  name: "drop_remainder"
  op: "Const"
  device: "/device:CPU:0"
  attr {
    key: "_output_shapes"
    value {
      list {
        shape {
        }
      }
    }
  }
  attr {
    key: "dtype"
    value {
      type: DT_BOOL
    }
  }
  attr {
    key: "value"
    value {
      tensor {
        dtype: DT_BOOL
        tensor_shape {
        }
        bool_val: false
      }
    }
  }
}
node {
  name: "BatchDatasetV2"
  op: "BatchDatasetV2"
  input: "MapDataset_1"
  input: "batch_size"
  input: "drop_remainder"
  device: "/device:CPU:0"
  attr {
    key: "_output_shapes"
    value {
      list {
        shape {
        }
      }
    }
  }
  attr {
    key: "output_shapes"
    value {
      list {
        shape {
          dim {
            size: -1
          }
          dim {
            size: -1
          }
        }
        shape {
          dim {
            size: -1
          }
        }
      }
    }
  }
  attr {
    key: "output_types"
    value {
      list {
        type: DT_STRING
        type: DT_STRING
      }
    }
  }
  attr {
    key: "parallel_copy"
    value {
      b: false
    }
  }
}
node {
  name: "optimizations"
  op: "Const"
  attr {
    key: "_output_shapes"
    value {
      list {
        shape {
          dim {
            size: 3
          }
        }
      }
    }
  }
  attr {
    key: "dtype"
    value {
      type: DT_STRING
    }
  }
  attr {
    key: "value"
    value {
      tensor {
        dtype: DT_STRING
        tensor_shape {
          dim {
            size: 3
          }
        }
        string_val: "map_and_batch_fusion"
        string_val: "noop_elimination"
        string_val: "shuffle_and_repeat_fusion"
      }
    }
  }
}
node {
  name: "OptimizeDataset"
  op: "OptimizeDataset"
  input: "BatchDatasetV2"
  input: "optimizations"
  attr {
    key: "_output_shapes"
    value {
      list {
        shape {
        }
      }
    }
  }
  attr {
    key: "optimization_configs"
    value {
      list {
      }
    }
  }
  attr {
    key: "output_shapes"
    value {
      list {
        shape {
          dim {
            size: -1
          }
          dim {
            size: -1
          }
        }
        shape {
          dim {
            size: -1
          }
        }
      }
    }
  }
  attr {
    key: "output_types"
    value {
      list {
        type: DT_STRING
        type: DT_STRING
      }
    }
  }
}
node {
  name: "ModelDataset"
  op: "ModelDataset"
  input: "OptimizeDataset"
  attr {
    key: "_output_shapes"
    value {
      list {
        shape {
        }
      }
    }
  }
  attr {
    key: "algorithm"
    value {
      i: 0
    }
  }
  attr {
    key: "cpu_budget"
    value {
      i: 0
    }
  }
  attr {
    key: "output_shapes"
    value {
      list {
        shape {
          dim {
            size: -1
          }
          dim {
            size: -1
          }
        }
        shape {
          dim {
            size: -1
          }
        }
      }
    }
  }
  attr {
    key: "output_types"
    value {
      list {
        type: DT_STRING
        type: DT_STRING
      }
    }
  }
}
node {
  name: "IteratorV2"
  op: "IteratorV2"
  attr {
    key: "_output_shapes"
    value {
      list {
        shape {
        }
      }
    }
  }
  attr {
    key: "container"
    value {
      s: ""
    }
  }
  attr {
    key: "output_shapes"
    value {
      list {
        shape {
          dim {
            size: -1
          }
          dim {
            size: -1
          }
        }
        shape {
          dim {
            size: -1
          }
        }
      }
    }
  }
  attr {
    key: "output_types"
    value {
      list {
        type: DT_STRING
        type: DT_STRING
      }
    }
  }
  attr {
    key: "shared_name"
    value {
      s: ""
    }
  }
}
node {
  name: "MakeIterator"
  op: "MakeIterator"
  input: "ModelDataset"
  input: "IteratorV2"
  attr {
    key: "_class"
    value {
      list {
        s: "loc:@IteratorV2"
      }
    }
  }
}
node {
  name: "IteratorToStringHandle"
  op: "IteratorToStringHandle"
  input: "IteratorV2"
  attr {
    key: "_output_shapes"
    value {
      list {
        shape {
        }
      }
    }
  }
}
node {
  name: "IteratorGetNext"
  op: "IteratorGetNext"
  input: "IteratorV2"
  attr {
    key: "_output_shapes"
    value {
      list {
        shape {
          dim {
            size: -1
          }
          dim {
            size: -1
          }
        }
        shape {
          dim {
            size: -1
          }
        }
      }
    }
  }
  attr {
    key: "output_shapes"
    value {
      list {
        shape {
          dim {
            size: -1
          }
          dim {
            size: -1
          }
        }
        shape {
          dim {
            size: -1
          }
        }
      }
    }
  }
  attr {
    key: "output_types"
    value {
      list {
        type: DT_STRING
        type: DT_STRING
      }
    }
  }
}
node {
  name: "dnn/input_from_feature_columns/input_layer/content_embedding/embedding_weights/Initializer/truncated_normal/shape"
  op: "Const"
  attr {
    key: "_class"
    value {
      list {
        s: "loc:@dnn/input_from_feature_columns/input_layer/content_embedding/embedding_weights"
      }
    }
  }
  attr {
    key: "_output_shapes"
    value {
      list {
        shape {
          dim {
            size: 2
          }
        }
      }
    }
  }
  attr {
    key: "dtype"
    value {
      type: DT_INT32
    }
  }
  attr {
    key: "value"
    value {
      tensor {
        dtype: DT_INT32
        tensor_shape {
          dim {
            size: 2
          }
        }
        tensor_content: " N\000\000\215\000\000\000"
      }
    }
  }
}
node {
  name: "dnn/input_from_feature_columns/input_layer/content_embedding/embedding_weights/Initializer/truncated_normal/mean"
  op: "Const"
  attr {
    key: "_class"
    value {
      list {
        s: "loc:@dnn/input_from_feature_columns/input_layer/content_embedding/embedding_weights"
      }
    }
  }
  attr {
    key: "_output_shapes"
    value {
      list {
        shape {
        }
      }
    }
  }
  attr {
    key: "dtype"
    value {
      type: DT_FLOAT
    }
  }
  attr {
    key: "value"
    value {
      tensor {
        dtype: DT_FLOAT
        tensor_shape {
        }
        float_val: 0.0
      }
    }
  }
}
node {
  name: "dnn/input_from_feature_columns/input_layer/content_embedding/embedding_weights/Initializer/truncated_normal/stddev"
  op: "Const"
  attr {
    key: "_class"
    value {
      list {
        s: "loc:@dnn/input_from_feature_columns/input_layer/content_embedding/embedding_weights"
      }
    }
  }
  attr {
    key: "_output_shapes"
    value {
      list {
        shape {
        }
      }
    }
  }
  attr {
    key: "dtype"
    value {
      type: DT_FLOAT
    }
  }
  attr {
    key: "value"
    value {
      tensor {
        dtype: DT_FLOAT
        tensor_shape {
        }
        float_val: 0.0842151939868927
      }
    }
  }
}
node {
  name: "dnn/input_from_feature_columns/input_layer/content_embedding/embedding_weights/Initializer/truncated_normal/TruncatedNormal"
  op: "TruncatedNormal"
  input: "dnn/input_from_feature_columns/input_layer/content_embedding/embedding_weights/Initializer/truncated_normal/shape"
  attr {
    key: "T"
    value {
      type: DT_INT32
    }
  }
  attr {
    key: "_class"
    value {
      list {
        s: "loc:@dnn/input_from_feature_columns/input_layer/content_embedding/embedding_weights"
      }
    }
  }
  attr {
    key: "_output_shapes"
    value {
      list {
        shape {
          dim {
            size: 20000
          }
          dim {
            size: 141
          }
        }
      }
    }
  }
  attr {
    key: "dtype"
    value {
      type: DT_FLOAT
    }
  }
  attr {
    key: "seed"
    value {
      i: 0
    }
  }
  attr {
    key: "seed2"
    value {
      i: 0
    }
  }
}
node {
  name: "dnn/input_from_feature_columns/input_layer/content_embedding/embedding_weights/Initializer/truncated_normal/mul"
  op: "Mul"
  input: "dnn/input_from_feature_columns/input_layer/content_embedding/embedding_weights/Initializer/truncated_normal/TruncatedNormal"
  input: "dnn/input_from_feature_columns/input_layer/content_embedding/embedding_weights/Initializer/truncated_normal/stddev"
  attr {
    key: "T"
    value {
      type: DT_FLOAT
    }
  }
  attr {
    key: "_class"
    value {
      list {
        s: "loc:@dnn/input_from_feature_columns/input_layer/content_embedding/embedding_weights"
      }
    }
  }
  attr {
    key: "_output_shapes"
    value {
      list {
        shape {
          dim {
            size: 20000
          }
          dim {
            size: 141
          }
        }
      }
    }
  }
}
node {
  name: "dnn/input_from_feature_columns/input_layer/content_embedding/embedding_weights/Initializer/truncated_normal"
  op: "Add"
  input: "dnn/input_from_feature_columns/input_layer/content_embedding/embedding_weights/Initializer/truncated_normal/mul"
  input: "dnn/input_from_feature_columns/input_layer/content_embedding/embedding_weights/Initializer/truncated_normal/mean"
  attr {
    key: "T"
    value {
      type: DT_FLOAT
    }
  }
  attr {
    key: "_class"
    value {
      list {
        s: "loc:@dnn/input_from_feature_columns/input_layer/content_embedding/embedding_weights"
      }
    }
  }
  attr {
    key: "_output_shapes"
    value {
      list {
        shape {
          dim {
            size: 20000
          }
          dim {
            size: 141
          }
        }
      }
    }
  }
}
node {
  name: "dnn/input_from_feature_columns/input_layer/content_embedding/embedding_weights"
  op: "VarHandleOp"
  attr {
    key: "_class"
    value {
      list {
        s: "loc:@dnn/input_from_feature_columns/input_layer/content_embedding/embedding_weights"
      }
    }
  }
  attr {
    key: "_output_shapes"
    value {
      list {
        shape {
        }
      }
    }
  }
  attr {
    key: "container"
    value {
      s: ""
    }
  }
  attr {
    key: "dtype"
    value {
      type: DT_FLOAT
    }
  }
  attr {
    key: "shape"
    value {
      shape {
        dim {
          size: 20000
        }
        dim {
          size: 141
        }
      }
    }
  }
  attr {
    key: "shared_name"
    value {
      s: "dnn/input_from_feature_columns/input_layer/content_embedding/embedding_weights"
    }
  }
}
node {
  name: "dnn/input_from_feature_columns/input_layer/content_embedding/embedding_weights/IsInitialized/VarIsInitializedOp"
  op: "VarIsInitializedOp"
  input: "dnn/input_from_feature_columns/input_layer/content_embedding/embedding_weights"
  attr {
    key: "_output_shapes"
    value {
      list {
        shape {
        }
      }
    }
  }
}
node {
  name: "dnn/input_from_feature_columns/input_layer/content_embedding/embedding_weights/Assign"
  op: "AssignVariableOp"
  input: "dnn/input_from_feature_columns/input_layer/content_embedding/embedding_weights"
  input: "dnn/input_from_feature_columns/input_layer/content_embedding/embedding_weights/Initializer/truncated_normal"
  attr {
    key: "dtype"
    value {
      type: DT_FLOAT
    }
  }
}
node {
  name: "dnn/input_from_feature_columns/input_layer/content_embedding/embedding_weights/Read/ReadVariableOp"
  op: "ReadVariableOp"
  input: "dnn/input_from_feature_columns/input_layer/content_embedding/embedding_weights"
  attr {
    key: "_output_shapes"
    value {
      list {
        shape {
          dim {
            size: 20000
          }
          dim {
            size: 141
          }
        }
      }
    }
  }
  attr {
    key: "dtype"
    value {
      type: DT_FLOAT
    }
  }
}
node {
  name: "dnn/input_from_feature_columns/input_layer/content_embedding_1/to_sparse_input/ignore_value/x"
  op: "Const"
  attr {
    key: "_output_shapes"
    value {
      list {
        shape {
        }
      }
    }
  }
  attr {
    key: "dtype"
    value {
      type: DT_STRING
    }
  }
  attr {
    key: "value"
    value {
      tensor {
        dtype: DT_STRING
        tensor_shape {
        }
        string_val: ""
      }
    }
  }
}
node {
  name: "dnn/input_from_feature_columns/input_layer/content_embedding_1/to_sparse_input/NotEqual"
  op: "NotEqual"
  input: "IteratorGetNext"
  input: "dnn/input_from_feature_columns/input_layer/content_embedding_1/to_sparse_input/ignore_value/x"
  attr {
    key: "T"
    value {
      type: DT_STRING
    }
  }
  attr {
    key: "_output_shapes"
    value {
      list {
        shape {
          dim {
            size: -1
          }
          dim {
            size: -1
          }
        }
      }
    }
  }
  attr {
    key: "incompatible_shape_error"
    value {
      b: true
    }
  }
}
node {
  name: "dnn/input_from_feature_columns/input_layer/content_embedding_1/to_sparse_input/indices"
  op: "Where"
  input: "dnn/input_from_feature_columns/input_layer/content_embedding_1/to_sparse_input/NotEqual"
  attr {
    key: "T"
    value {
      type: DT_BOOL
    }
  }
  attr {
    key: "_output_shapes"
    value {
      list {
        shape {
          dim {
            size: -1
          }
          dim {
            size: 2
          }
        }
      }
    }
  }
}
node {
  name: "dnn/input_from_feature_columns/input_layer/content_embedding_1/to_sparse_input/values"
  op: "GatherNd"
  input: "IteratorGetNext"
  input: "dnn/input_from_feature_columns/input_layer/content_embedding_1/to_sparse_input/indices"
  attr {
    key: "Tindices"
    value {
      type: DT_INT64
    }
  }
  attr {
    key: "Tparams"
    value {
      type: DT_STRING
    }
  }
  attr {
    key: "_output_shapes"
    value {
      list {
        shape {
          dim {
            size: -1
          }
        }
      }
    }
  }
}
node {
  name: "dnn/input_from_feature_columns/input_layer/content_embedding_1/to_sparse_input/dense_shape"
  op: "Shape"
  input: "IteratorGetNext"
  attr {
    key: "T"
    value {
      type: DT_STRING
    }
  }
  attr {
    key: "_output_shapes"
    value {
      list {
        shape {
          dim {
            size: 2
          }
        }
      }
    }
  }
  attr {
    key: "out_type"
    value {
      type: DT_INT64
    }
  }
}
node {
  name: "dnn/input_from_feature_columns/input_layer/content_embedding_1/lookup"
  op: "StringToHashBucketFast"
  input: "dnn/input_from_feature_columns/input_layer/content_embedding_1/to_sparse_input/values"
  attr {
    key: "_output_shapes"
    value {
      list {
        shape {
          dim {
            size: -1
          }
        }
      }
    }
  }
  attr {
    key: "num_buckets"
    value {
      i: 20000
    }
  }
}
node {
  name: "dnn/input_from_feature_columns/input_layer/content_embedding_1/content_embedding_weights/Slice/begin"
  op: "Const"
  attr {
    key: "_output_shapes"
    value {
      list {
        shape {
          dim {
            size: 1
          }
        }
      }
    }
  }
  attr {
    key: "dtype"
    value {
      type: DT_INT32
    }
  }
  attr {
    key: "value"
    value {
      tensor {
        dtype: DT_INT32
        tensor_shape {
          dim {
            size: 1
          }
        }
        int_val: 0
      }
    }
  }
}
node {
  name: "dnn/input_from_feature_columns/input_layer/content_embedding_1/content_embedding_weights/Slice/size"
  op: "Const"
  attr {
    key: "_output_shapes"
    value {
      list {
        shape {
          dim {
            size: 1
          }
        }
      }
    }
  }
  attr {
    key: "dtype"
    value {
      type: DT_INT32
    }
  }
  attr {
    key: "value"
    value {
      tensor {
        dtype: DT_INT32
        tensor_shape {
          dim {
            size: 1
          }
        }
        int_val: 1
      }
    }
  }
}
node {
  name: "dnn/input_from_feature_columns/input_layer/content_embedding_1/content_embedding_weights/Slice"
  op: "Slice"
  input: "dnn/input_from_feature_columns/input_layer/content_embedding_1/to_sparse_input/dense_shape"
  input: "dnn/input_from_feature_columns/input_layer/content_embedding_1/content_embedding_weights/Slice/begin"
  input: "dnn/input_from_feature_columns/input_layer/content_embedding_1/content_embedding_weights/Slice/size"
  attr {
    key: "Index"
    value {
      type: DT_INT32
    }
  }
  attr {
    key: "T"
    value {
      type: DT_INT64
    }
  }
  attr {
    key: "_output_shapes"
    value {
      list {
        shape {
          dim {
            size: 1
          }
        }
      }
    }
  }
}
node {
  name: "dnn/input_from_feature_columns/input_layer/content_embedding_1/content_embedding_weights/Const"
  op: "Const"
  attr {
    key: "_output_shapes"
    value {
      list {
        shape {
          dim {
            size: 1
          }
        }
      }
    }
  }
  attr {
    key: "dtype"
    value {
      type: DT_INT32
    }
  }
  attr {
    key: "value"
    value {
      tensor {
        dtype: DT_INT32
        tensor_shape {
          dim {
            size: 1
          }
        }
        int_val: 0
      }
    }
  }
}
node {
  name: "dnn/input_from_feature_columns/input_layer/content_embedding_1/content_embedding_weights/Prod"
  op: "Prod"
  input: "dnn/input_from_feature_columns/input_layer/content_embedding_1/content_embedding_weights/Slice"
  input: "dnn/input_from_feature_columns/input_layer/content_embedding_1/content_embedding_weights/Const"
  attr {
    key: "T"
    value {
      type: DT_INT64
    }
  }
  attr {
    key: "Tidx"
    value {
      type: DT_INT32
    }
  }
  attr {
    key: "_output_shapes"
    value {
      list {
        shape {
        }
      }
    }
  }
  attr {
    key: "keep_dims"
    value {
      b: false
    }
  }
}
node {
  name: "dnn/input_from_feature_columns/input_layer/content_embedding_1/content_embedding_weights/GatherV2/indices"
  op: "Const"
  attr {
    key: "_output_shapes"
    value {
      list {
        shape {
        }
      }
    }
  }
  attr {
    key: "dtype"
    value {
      type: DT_INT32
    }
  }
  attr {
    key: "value"
    value {
      tensor {
        dtype: DT_INT32
        tensor_shape {
        }
        int_val: 1
      }
    }
  }
}
node {
  name: "dnn/input_from_feature_columns/input_layer/content_embedding_1/content_embedding_weights/GatherV2/axis"
  op: "Const"
  attr {
    key: "_output_shapes"
    value {
      list {
        shape {
        }
      }
    }
  }
  attr {
    key: "dtype"
    value {
      type: DT_INT32
    }
  }
  attr {
    key: "value"
    value {
      tensor {
        dtype: DT_INT32
        tensor_shape {
        }
        int_val: 0
      }
    }
  }
}
node {
  name: "dnn/input_from_feature_columns/input_layer/content_embedding_1/content_embedding_weights/GatherV2"
  op: "GatherV2"
  input: "dnn/input_from_feature_columns/input_layer/content_embedding_1/to_sparse_input/dense_shape"
  input: "dnn/input_from_feature_columns/input_layer/content_embedding_1/content_embedding_weights/GatherV2/indices"
  input: "dnn/input_from_feature_columns/input_layer/content_embedding_1/content_embedding_weights/GatherV2/axis"
  attr {
    key: "Taxis"
    value {
      type: DT_INT32
    }
  }
  attr {
    key: "Tindices"
    value {
      type: DT_INT32
    }
  }
  attr {
    key: "Tparams"
    value {
      type: DT_INT64
    }
  }
  attr {
    key: "_output_shapes"
    value {
      list {
        shape {
        }
      }
    }
  }
  attr {
    key: "batch_dims"
    value {
      i: 0
    }
  }
}
node {
  name: "dnn/input_from_feature_columns/input_layer/content_embedding_1/content_embedding_weights/Cast/x"
  op: "Pack"
  input: "dnn/input_from_feature_columns/input_layer/content_embedding_1/content_embedding_weights/Prod"
  input: "dnn/input_from_feature_columns/input_layer/content_embedding_1/content_embedding_weights/GatherV2"
  attr {
    key: "N"
    value {
      i: 2
    }
  }
  attr {
    key: "T"
    value {
      type: DT_INT64
    }
  }
  attr {
    key: "_output_shapes"
    value {
      list {
        shape {
          dim {
            size: 2
          }
        }
      }
    }
  }
  attr {
    key: "axis"
    value {
      i: 0
    }
  }
}
node {
  name: "dnn/input_from_feature_columns/input_layer/content_embedding_1/content_embedding_weights/SparseReshape"
  op: "SparseReshape"
  input: "dnn/input_from_feature_columns/input_layer/content_embedding_1/to_sparse_input/indices"
  input: "dnn/input_from_feature_columns/input_layer/content_embedding_1/to_sparse_input/dense_shape"
  input: "dnn/input_from_feature_columns/input_layer/content_embedding_1/content_embedding_weights/Cast/x"
  attr {
    key: "_output_shapes"
    value {
      list {
        shape {
          dim {
            size: -1
          }
          dim {
            size: 2
          }
        }
        shape {
          dim {
            size: 2
          }
        }
      }
    }
  }
}
node {
  name: "dnn/input_from_feature_columns/input_layer/content_embedding_1/content_embedding_weights/SparseReshape/Identity"
  op: "Identity"
  input: "dnn/input_from_feature_columns/input_layer/content_embedding_1/lookup"
  attr {
    key: "T"
    value {
      type: DT_INT64
    }
  }
  attr {
    key: "_output_shapes"
    value {
      list {
        shape {
          dim {
            size: -1
          }
        }
      }
    }
  }
}
node {
  name: "dnn/input_from_feature_columns/input_layer/content_embedding_1/content_embedding_weights/GreaterEqual/y"
  op: "Const"
  attr {
    key: "_output_shapes"
    value {
      list {
        shape {
        }
      }
    }
  }
  attr {
    key: "dtype"
    value {
      type: DT_INT64
    }
  }
  attr {
    key: "value"
    value {
      tensor {
        dtype: DT_INT64
        tensor_shape {
        }
        int64_val: 0
      }
    }
  }
}
node {
  name: "dnn/input_from_feature_columns/input_layer/content_embedding_1/content_embedding_weights/GreaterEqual"
  op: "GreaterEqual"
  input: "dnn/input_from_feature_columns/input_layer/content_embedding_1/content_embedding_weights/SparseReshape/Identity"
  input: "dnn/input_from_feature_columns/input_layer/content_embedding_1/content_embedding_weights/GreaterEqual/y"
  attr {
    key: "T"
    value {
      type: DT_INT64
    }
  }
  attr {
    key: "_output_shapes"
    value {
      list {
        shape {
          dim {
            size: -1
          }
        }
      }
    }
  }
}
node {
  name: "dnn/input_from_feature_columns/input_layer/content_embedding_1/content_embedding_weights/Where"
  op: "Where"
  input: "dnn/input_from_feature_columns/input_layer/content_embedding_1/content_embedding_weights/GreaterEqual"
  attr {
    key: "T"
    value {
      type: DT_BOOL
    }
  }
  attr {
    key: "_output_shapes"
    value {
      list {
        shape {
          dim {
            size: -1
          }
          dim {
            size: 1
          }
        }
      }
    }
  }
}
node {
  name: "dnn/input_from_feature_columns/input_layer/content_embedding_1/content_embedding_weights/Reshape/shape"
  op: "Const"
  attr {
    key: "_output_shapes"
    value {
      list {
        shape {
          dim {
            size: 1
          }
        }
      }
    }
  }
  attr {
    key: "dtype"
    value {
      type: DT_INT32
    }
  }
  attr {
    key: "value"
    value {
      tensor {
        dtype: DT_INT32
        tensor_shape {
          dim {
            size: 1
          }
        }
        int_val: -1
      }
    }
  }
}
node {
  name: "dnn/input_from_feature_columns/input_layer/content_embedding_1/content_embedding_weights/Reshape"
  op: "Reshape"
  input: "dnn/input_from_feature_columns/input_layer/content_embedding_1/content_embedding_weights/Where"
  input: "dnn/input_from_feature_columns/input_layer/content_embedding_1/content_embedding_weights/Reshape/shape"
  attr {
    key: "T"
    value {
      type: DT_INT64
    }
  }
  attr {
    key: "Tshape"
    value {
      type: DT_INT32
    }
  }
  attr {
    key: "_output_shapes"
    value {
      list {
        shape {
          dim {
            size: -1
          }
        }
      }
    }
  }
}
node {
  name: "dnn/input_from_feature_columns/input_layer/content_embedding_1/content_embedding_weights/GatherV2_1/axis"
  op: "Const"
  attr {
    key: "_output_shapes"
    value {
      list {
        shape {
        }
      }
    }
  }
  attr {
    key: "dtype"
    value {
      type: DT_INT32
    }
  }
  attr {
    key: "value"
    value {
      tensor {
        dtype: DT_INT32
        tensor_shape {
        }
        int_val: 0
      }
    }
  }
}
node {
  name: "dnn/input_from_feature_columns/input_layer/content_embedding_1/content_embedding_weights/GatherV2_1"
  op: "GatherV2"
  input: "dnn/input_from_feature_columns/input_layer/content_embedding_1/content_embedding_weights/SparseReshape"
  input: "dnn/input_from_feature_columns/input_layer/content_embedding_1/content_embedding_weights/Reshape"
  input: "dnn/input_from_feature_columns/input_layer/content_embedding_1/content_embedding_weights/GatherV2_1/axis"
  attr {
    key: "Taxis"
    value {
      type: DT_INT32
    }
  }
  attr {
    key: "Tindices"
    value {
      type: DT_INT64
    }
  }
  attr {
    key: "Tparams"
    value {
      type: DT_INT64
    }
  }
  attr {
    key: "_output_shapes"
    value {
      list {
        shape {
          dim {
            size: -1
          }
          dim {
            size: 2
          }
        }
      }
    }
  }
  attr {
    key: "batch_dims"
    value {
      i: 0
    }
  }
}
node {
  name: "dnn/input_from_feature_columns/input_layer/content_embedding_1/content_embedding_weights/GatherV2_2/axis"
  op: "Const"
  attr {
    key: "_output_shapes"
    value {
      list {
        shape {
        }
      }
    }
  }
  attr {
    key: "dtype"
    value {
      type: DT_INT32
    }
  }
  attr {
    key: "value"
    value {
      tensor {
        dtype: DT_INT32
        tensor_shape {
        }
        int_val: 0
      }
    }
  }
}
node {
  name: "dnn/input_from_feature_columns/input_layer/content_embedding_1/content_embedding_weights/GatherV2_2"
  op: "GatherV2"
  input: "dnn/input_from_feature_columns/input_layer/content_embedding_1/content_embedding_weights/SparseReshape/Identity"
  input: "dnn/input_from_feature_columns/input_layer/content_embedding_1/content_embedding_weights/Reshape"
  input: "dnn/input_from_feature_columns/input_layer/content_embedding_1/content_embedding_weights/GatherV2_2/axis"
  attr {
    key: "Taxis"
    value {
      type: DT_INT32
    }
  }
  attr {
    key: "Tindices"
    value {
      type: DT_INT64
    }
  }
  attr {
    key: "Tparams"
    value {
      type: DT_INT64
    }
  }
  attr {
    key: "_output_shapes"
    value {
      list {
        shape {
          dim {
            size: -1
          }
        }
      }
    }
  }
  attr {
    key: "batch_dims"
    value {
      i: 0
    }
  }
}
node {
  name: "dnn/input_from_feature_columns/input_layer/content_embedding_1/content_embedding_weights/Identity"
  op: "Identity"
  input: "dnn/input_from_feature_columns/input_layer/content_embedding_1/content_embedding_weights/SparseReshape:1"
  attr {
    key: "T"
    value {
      type: DT_INT64
    }
  }
  attr {
    key: "_output_shapes"
    value {
      list {
        shape {
          dim {
            size: 2
          }
        }
      }
    }
  }
}
node {
  name: "dnn/input_from_feature_columns/input_layer/content_embedding_1/content_embedding_weights/SparseFillEmptyRows/Const"
  op: "Const"
  attr {
    key: "_output_shapes"
    value {
      list {
        shape {
        }
      }
    }
  }
  attr {
    key: "dtype"
    value {
      type: DT_INT64
    }
  }
  attr {
    key: "value"
    value {
      tensor {
        dtype: DT_INT64
        tensor_shape {
        }
        int64_val: 0
      }
    }
  }
}
node {
  name: "dnn/input_from_feature_columns/input_layer/content_embedding_1/content_embedding_weights/SparseFillEmptyRows/SparseFillEmptyRows"
  op: "SparseFillEmptyRows"
  input: "dnn/input_from_feature_columns/input_layer/content_embedding_1/content_embedding_weights/GatherV2_1"
  input: "dnn/input_from_feature_columns/input_layer/content_embedding_1/content_embedding_weights/GatherV2_2"
  input: "dnn/input_from_feature_columns/input_layer/content_embedding_1/content_embedding_weights/Identity"
  input: "dnn/input_from_feature_columns/input_layer/content_embedding_1/content_embedding_weights/SparseFillEmptyRows/Const"
  attr {
    key: "T"
    value {
      type: DT_INT64
    }
  }
  attr {
    key: "_output_shapes"
    value {
      list {
        shape {
          dim {
            size: -1
          }
          dim {
            size: 2
          }
        }
        shape {
          dim {
            size: -1
          }
        }
        shape {
          dim {
            size: -1
          }
        }
        shape {
          dim {
            size: -1
          }
        }
      }
    }
  }
}
node {
  name: "dnn/input_from_feature_columns/input_layer/content_embedding_1/content_embedding_weights/embedding_lookup_sparse/strided_slice/stack"
  op: "Const"
  attr {
    key: "_output_shapes"
    value {
      list {
        shape {
          dim {
            size: 2
          }
        }
      }
    }
  }
  attr {
    key: "dtype"
    value {
      type: DT_INT32
    }
  }
  attr {
    key: "value"
    value {
      tensor {
        dtype: DT_INT32
        tensor_shape {
          dim {
            size: 2
          }
        }
        tensor_content: "\000\000\000\000\000\000\000\000"
      }
    }
  }
}
node {
  name: "dnn/input_from_feature_columns/input_layer/content_embedding_1/content_embedding_weights/embedding_lookup_sparse/strided_slice/stack_1"
  op: "Const"
  attr {
    key: "_output_shapes"
    value {
      list {
        shape {
          dim {
            size: 2
          }
        }
      }
    }
  }
  attr {
    key: "dtype"
    value {
      type: DT_INT32
    }
  }
  attr {
    key: "value"
    value {
      tensor {
        dtype: DT_INT32
        tensor_shape {
          dim {
            size: 2
          }
        }
        tensor_content: "\000\000\000\000\001\000\000\000"
      }
    }
  }
}
node {
  name: "dnn/input_from_feature_columns/input_layer/content_embedding_1/content_embedding_weights/embedding_lookup_sparse/strided_slice/stack_2"
  op: "Const"
  attr {
    key: "_output_shapes"
    value {
      list {
        shape {
          dim {
            size: 2
          }
        }
      }
    }
  }
  attr {
    key: "dtype"
    value {
      type: DT_INT32
    }
  }
  attr {
    key: "value"
    value {
      tensor {
        dtype: DT_INT32
        tensor_shape {
          dim {
            size: 2
          }
        }
        tensor_content: "\001\000\000\000\001\000\000\000"
      }
    }
  }
}
node {
  name: "dnn/input_from_feature_columns/input_layer/content_embedding_1/content_embedding_weights/embedding_lookup_sparse/strided_slice"
  op: "StridedSlice"
  input: "dnn/input_from_feature_columns/input_layer/content_embedding_1/content_embedding_weights/SparseFillEmptyRows/SparseFillEmptyRows"
  input: "dnn/input_from_feature_columns/input_layer/content_embedding_1/content_embedding_weights/embedding_lookup_sparse/strided_slice/stack"
  input: "dnn/input_from_feature_columns/input_layer/content_embedding_1/content_embedding_weights/embedding_lookup_sparse/strided_slice/stack_1"
  input: "dnn/input_from_feature_columns/input_layer/content_embedding_1/content_embedding_weights/embedding_lookup_sparse/strided_slice/stack_2"
  attr {
    key: "Index"
    value {
      type: DT_INT32
    }
  }
  attr {
    key: "T"
    value {
      type: DT_INT64
    }
  }
  attr {
    key: "_output_shapes"
    value {
      list {
        shape {
          dim {
            size: -1
          }
        }
      }
    }
  }
  attr {
    key: "begin_mask"
    value {
      i: 1
    }
  }
  attr {
    key: "ellipsis_mask"
    value {
      i: 0
    }
  }
  attr {
    key: "end_mask"
    value {
      i: 1
    }
  }
  attr {
    key: "new_axis_mask"
    value {
      i: 0
    }
  }
  attr {
    key: "shrink_axis_mask"
    value {
      i: 2
    }
  }
}
node {
  name: "dnn/input_from_feature_columns/input_layer/content_embedding_1/content_embedding_weights/embedding_lookup_sparse/Cast"
  op: "Cast"
  input: "dnn/input_from_feature_columns/input_layer/content_embedding_1/content_embedding_weights/embedding_lookup_sparse/strided_slice"
  attr {
    key: "DstT"
    value {
      type: DT_INT32
    }
  }
  attr {
    key: "SrcT"
    value {
      type: DT_INT64
    }
  }
  attr {
    key: "Truncate"
    value {
      b: false
    }
  }
  attr {
    key: "_output_shapes"
    value {
      list {
        shape {
          dim {
            size: -1
          }
        }
      }
    }
  }
}
node {
  name: "dnn/input_from_feature_columns/input_layer/content_embedding_1/content_embedding_weights/embedding_lookup_sparse/Unique"
  op: "Unique"
  input: "dnn/input_from_feature_columns/input_layer/content_embedding_1/content_embedding_weights/SparseFillEmptyRows/SparseFillEmptyRows:1"
  attr {
    key: "T"
    value {
      type: DT_INT64
    }
  }
  attr {
    key: "_output_shapes"
    value {
      list {
        shape {
          dim {
            size: -1
          }
        }
        shape {
          dim {
            size: -1
          }
        }
      }
    }
  }
  attr {
    key: "out_idx"
    value {
      type: DT_INT32
    }
  }
}
node {
  name: "dnn/input_from_feature_columns/input_layer/content_embedding_1/content_embedding_weights/embedding_lookup_sparse/embedding_lookup"
  op: "ResourceGather"
  input: "dnn/input_from_feature_columns/input_layer/content_embedding/embedding_weights"
  input: "dnn/input_from_feature_columns/input_layer/content_embedding_1/content_embedding_weights/embedding_lookup_sparse/Unique"
  attr {
    key: "Tindices"
    value {
      type: DT_INT64
    }
  }
  attr {
    key: "_class"
    value {
      list {
        s: "loc:@dnn/input_from_feature_columns/input_layer/content_embedding/embedding_weights"
      }
    }
  }
  attr {
    key: "_output_shapes"
    value {
      list {
        shape {
          dim {
            size: -1
          }
          dim {
            size: 141
          }
        }
      }
    }
  }
  attr {
    key: "batch_dims"
    value {
      i: 0
    }
  }
  attr {
    key: "dtype"
    value {
      type: DT_FLOAT
    }
  }
  attr {
    key: "validate_indices"
    value {
      b: true
    }
  }
}
node {
  name: "dnn/input_from_feature_columns/input_layer/content_embedding_1/content_embedding_weights/embedding_lookup_sparse/embedding_lookup/Identity"
  op: "Identity"
  input: "dnn/input_from_feature_columns/input_layer/content_embedding_1/content_embedding_weights/embedding_lookup_sparse/embedding_lookup"
  attr {
    key: "T"
    value {
      type: DT_FLOAT
    }
  }
  attr {
    key: "_class"
    value {
      list {
        s: "loc:@dnn/input_from_feature_columns/input_layer/content_embedding/embedding_weights"
      }
    }
  }
  attr {
    key: "_output_shapes"
    value {
      list {
        shape {
          dim {
            size: -1
          }
          dim {
            size: 141
          }
        }
      }
    }
  }
}
node {
  name: "dnn/input_from_feature_columns/input_layer/content_embedding_1/content_embedding_weights/embedding_lookup_sparse/embedding_lookup/Identity_1"
  op: "Identity"
  input: "dnn/input_from_feature_columns/input_layer/content_embedding_1/content_embedding_weights/embedding_lookup_sparse/embedding_lookup/Identity"
  attr {
    key: "T"
    value {
      type: DT_FLOAT
    }
  }
  attr {
    key: "_output_shapes"
    value {
      list {
        shape {
          dim {
            size: -1
          }
          dim {
            size: 141
          }
        }
      }
    }
  }
}
node {
  name: "dnn/input_from_feature_columns/input_layer/content_embedding_1/content_embedding_weights/embedding_lookup_sparse"
  op: "SparseSegmentMean"
  input: "dnn/input_from_feature_columns/input_layer/content_embedding_1/content_embedding_weights/embedding_lookup_sparse/embedding_lookup/Identity_1"
  input: "dnn/input_from_feature_columns/input_layer/content_embedding_1/content_embedding_weights/embedding_lookup_sparse/Unique:1"
  input: "dnn/input_from_feature_columns/input_layer/content_embedding_1/content_embedding_weights/embedding_lookup_sparse/Cast"
  attr {
    key: "T"
    value {
      type: DT_FLOAT
    }
  }
  attr {
    key: "Tidx"
    value {
      type: DT_INT32
    }
  }
  attr {
    key: "_output_shapes"
    value {
      list {
        shape {
          dim {
            size: -1
          }
          dim {
            size: 141
          }
        }
      }
    }
  }
}
node {
  name: "dnn/input_from_feature_columns/input_layer/content_embedding_1/content_embedding_weights/Reshape_1/shape"
  op: "Const"
  attr {
    key: "_output_shapes"
    value {
      list {
        shape {
          dim {
            size: 2
          }
        }
      }
    }
  }
  attr {
    key: "dtype"
    value {
      type: DT_INT32
    }
  }
  attr {
    key: "value"
    value {
      tensor {
        dtype: DT_INT32
        tensor_shape {
          dim {
            size: 2
          }
        }
        tensor_content: "\377\377\377\377\001\000\000\000"
      }
    }
  }
}
node {
  name: "dnn/input_from_feature_columns/input_layer/content_embedding_1/content_embedding_weights/Reshape_1"
  op: "Reshape"
  input: "dnn/input_from_feature_columns/input_layer/content_embedding_1/content_embedding_weights/SparseFillEmptyRows/SparseFillEmptyRows:2"
  input: "dnn/input_from_feature_columns/input_layer/content_embedding_1/content_embedding_weights/Reshape_1/shape"
  attr {
    key: "T"
    value {
      type: DT_BOOL
    }
  }
  attr {
    key: "Tshape"
    value {
      type: DT_INT32
    }
  }
  attr {
    key: "_output_shapes"
    value {
      list {
        shape {
          dim {
            size: -1
          }
          dim {
            size: 1
          }
        }
      }
    }
  }
}
node {
  name: "dnn/input_from_feature_columns/input_layer/content_embedding_1/content_embedding_weights/Shape"
  op: "Shape"
  input: "dnn/input_from_feature_columns/input_layer/content_embedding_1/content_embedding_weights/embedding_lookup_sparse"
  attr {
    key: "T"
    value {
      type: DT_FLOAT
    }
  }
  attr {
    key: "_output_shapes"
    value {
      list {
        shape {
          dim {
            size: 2
          }
        }
      }
    }
  }
  attr {
    key: "out_type"
    value {
      type: DT_INT32
    }
  }
}
node {
  name: "dnn/input_from_feature_columns/input_layer/content_embedding_1/content_embedding_weights/strided_slice/stack"
  op: "Const"
  attr {
    key: "_output_shapes"
    value {
      list {
        shape {
          dim {
            size: 1
          }
        }
      }
    }
  }
  attr {
    key: "dtype"
    value {
      type: DT_INT32
    }
  }
  attr {
    key: "value"
    value {
      tensor {
        dtype: DT_INT32
        tensor_shape {
          dim {
            size: 1
          }
        }
        int_val: 1
      }
    }
  }
}
node {
  name: "dnn/input_from_feature_columns/input_layer/content_embedding_1/content_embedding_weights/strided_slice/stack_1"
  op: "Const"
  attr {
    key: "_output_shapes"
    value {
      list {
        shape {
          dim {
            size: 1
          }
        }
      }
    }
  }
  attr {
    key: "dtype"
    value {
      type: DT_INT32
    }
  }
  attr {
    key: "value"
    value {
      tensor {
        dtype: DT_INT32
        tensor_shape {
          dim {
            size: 1
          }
        }
        int_val: 2
      }
    }
  }
}
node {
  name: "dnn/input_from_feature_columns/input_layer/content_embedding_1/content_embedding_weights/strided_slice/stack_2"
  op: "Const"
  attr {
    key: "_output_shapes"
    value {
      list {
        shape {
          dim {
            size: 1
          }
        }
      }
    }
  }
  attr {
    key: "dtype"
    value {
      type: DT_INT32
    }
  }
  attr {
    key: "value"
    value {
      tensor {
        dtype: DT_INT32
        tensor_shape {
          dim {
            size: 1
          }
        }
        int_val: 1
      }
    }
  }
}
node {
  name: "dnn/input_from_feature_columns/input_layer/content_embedding_1/content_embedding_weights/strided_slice"
  op: "StridedSlice"
  input: "dnn/input_from_feature_columns/input_layer/content_embedding_1/content_embedding_weights/Shape"
  input: "dnn/input_from_feature_columns/input_layer/content_embedding_1/content_embedding_weights/strided_slice/stack"
  input: "dnn/input_from_feature_columns/input_layer/content_embedding_1/content_embedding_weights/strided_slice/stack_1"
  input: "dnn/input_from_feature_columns/input_layer/content_embedding_1/content_embedding_weights/strided_slice/stack_2"
  attr {
    key: "Index"
    value {
      type: DT_INT32
    }
  }
  attr {
    key: "T"
    value {
      type: DT_INT32
    }
  }
  attr {
    key: "_output_shapes"
    value {
      list {
        shape {
        }
      }
    }
  }
  attr {
    key: "begin_mask"
    value {
      i: 0
    }
  }
  attr {
    key: "ellipsis_mask"
    value {
      i: 0
    }
  }
  attr {
    key: "end_mask"
    value {
      i: 0
    }
  }
  attr {
    key: "new_axis_mask"
    value {
      i: 0
    }
  }
  attr {
    key: "shrink_axis_mask"
    value {
      i: 1
    }
  }
}
node {
  name: "dnn/input_from_feature_columns/input_layer/content_embedding_1/content_embedding_weights/stack/0"
  op: "Const"
  attr {
    key: "_output_shapes"
    value {
      list {
        shape {
        }
      }
    }
  }
  attr {
    key: "dtype"
    value {
      type: DT_INT32
    }
  }
  attr {
    key: "value"
    value {
      tensor {
        dtype: DT_INT32
        tensor_shape {
        }
        int_val: 1
      }
    }
  }
}
node {
  name: "dnn/input_from_feature_columns/input_layer/content_embedding_1/content_embedding_weights/stack"
  op: "Pack"
  input: "dnn/input_from_feature_columns/input_layer/content_embedding_1/content_embedding_weights/stack/0"
  input: "dnn/input_from_feature_columns/input_layer/content_embedding_1/content_embedding_weights/strided_slice"
  attr {
    key: "N"
    value {
      i: 2
    }
  }
  attr {
    key: "T"
    value {
      type: DT_INT32
    }
  }
  attr {
    key: "_output_shapes"
    value {
      list {
        shape {
          dim {
            size: 2
          }
        }
      }
    }
  }
  attr {
    key: "axis"
    value {
      i: 0
    }
  }
}
node {
  name: "dnn/input_from_feature_columns/input_layer/content_embedding_1/content_embedding_weights/Tile"
  op: "Tile"
  input: "dnn/input_from_feature_columns/input_layer/content_embedding_1/content_embedding_weights/Reshape_1"
  input: "dnn/input_from_feature_columns/input_layer/content_embedding_1/content_embedding_weights/stack"
  attr {
    key: "T"
    value {
      type: DT_BOOL
    }
  }
  attr {
    key: "Tmultiples"
    value {
      type: DT_INT32
    }
  }
  attr {
    key: "_output_shapes"
    value {
      list {
        shape {
          dim {
            size: -1
          }
          dim {
            size: -1
          }
        }
      }
    }
  }
}
node {
  name: "dnn/input_from_feature_columns/input_layer/content_embedding_1/content_embedding_weights/zeros_like"
  op: "ZerosLike"
  input: "dnn/input_from_feature_columns/input_layer/content_embedding_1/content_embedding_weights/embedding_lookup_sparse"
  attr {
    key: "T"
    value {
      type: DT_FLOAT
    }
  }
  attr {
    key: "_output_shapes"
    value {
      list {
        shape {
          dim {
            size: -1
          }
          dim {
            size: 141
          }
        }
      }
    }
  }
}
node {
  name: "dnn/input_from_feature_columns/input_layer/content_embedding_1/content_embedding_weights"
  op: "Select"
  input: "dnn/input_from_feature_columns/input_layer/content_embedding_1/content_embedding_weights/Tile"
  input: "dnn/input_from_feature_columns/input_layer/content_embedding_1/content_embedding_weights/zeros_like"
  input: "dnn/input_from_feature_columns/input_layer/content_embedding_1/content_embedding_weights/embedding_lookup_sparse"
  attr {
    key: "T"
    value {
      type: DT_FLOAT
    }
  }
  attr {
    key: "_output_shapes"
    value {
      list {
        shape {
          dim {
            size: -1
          }
          dim {
            size: 141
          }
        }
      }
    }
  }
}
node {
  name: "dnn/input_from_feature_columns/input_layer/content_embedding_1/content_embedding_weights/Cast_1"
  op: "Cast"
  input: "dnn/input_from_feature_columns/input_layer/content_embedding_1/to_sparse_input/dense_shape"
  attr {
    key: "DstT"
    value {
      type: DT_INT32
    }
  }
  attr {
    key: "SrcT"
    value {
      type: DT_INT64
    }
  }
  attr {
    key: "Truncate"
    value {
      b: false
    }
  }
  attr {
    key: "_output_shapes"
    value {
      list {
        shape {
          dim {
            size: 2
          }
        }
      }
    }
  }
}
node {
  name: "dnn/input_from_feature_columns/input_layer/content_embedding_1/content_embedding_weights/Slice_1/begin"
  op: "Const"
  attr {
    key: "_output_shapes"
    value {
      list {
        shape {
          dim {
            size: 1
          }
        }
      }
    }
  }
  attr {
    key: "dtype"
    value {
      type: DT_INT32
    }
  }
  attr {
    key: "value"
    value {
      tensor {
        dtype: DT_INT32
        tensor_shape {
          dim {
            size: 1
          }
        }
        int_val: 0
      }
    }
  }
}
node {
  name: "dnn/input_from_feature_columns/input_layer/content_embedding_1/content_embedding_weights/Slice_1/size"
  op: "Const"
  attr {
    key: "_output_shapes"
    value {
      list {
        shape {
          dim {
            size: 1
          }
        }
      }
    }
  }
  attr {
    key: "dtype"
    value {
      type: DT_INT32
    }
  }
  attr {
    key: "value"
    value {
      tensor {
        dtype: DT_INT32
        tensor_shape {
          dim {
            size: 1
          }
        }
        int_val: 1
      }
    }
  }
}
node {
  name: "dnn/input_from_feature_columns/input_layer/content_embedding_1/content_embedding_weights/Slice_1"
  op: "Slice"
  input: "dnn/input_from_feature_columns/input_layer/content_embedding_1/content_embedding_weights/Cast_1"
  input: "dnn/input_from_feature_columns/input_layer/content_embedding_1/content_embedding_weights/Slice_1/begin"
  input: "dnn/input_from_feature_columns/input_layer/content_embedding_1/content_embedding_weights/Slice_1/size"
  attr {
    key: "Index"
    value {
      type: DT_INT32
    }
  }
  attr {
    key: "T"
    value {
      type: DT_INT32
    }
  }
  attr {
    key: "_output_shapes"
    value {
      list {
        shape {
          dim {
            size: 1
          }
        }
      }
    }
  }
}
node {
  name: "dnn/input_from_feature_columns/input_layer/content_embedding_1/content_embedding_weights/Shape_1"
  op: "Shape"
  input: "dnn/input_from_feature_columns/input_layer/content_embedding_1/content_embedding_weights"
  attr {
    key: "T"
    value {
      type: DT_FLOAT
    }
  }
  attr {
    key: "_output_shapes"
    value {
      list {
        shape {
          dim {
            size: 2
          }
        }
      }
    }
  }
  attr {
    key: "out_type"
    value {
      type: DT_INT32
    }
  }
}
node {
  name: "dnn/input_from_feature_columns/input_layer/content_embedding_1/content_embedding_weights/Slice_2/begin"
  op: "Const"
  attr {
    key: "_output_shapes"
    value {
      list {
        shape {
          dim {
            size: 1
          }
        }
      }
    }
  }
  attr {
    key: "dtype"
    value {
      type: DT_INT32
    }
  }
  attr {
    key: "value"
    value {
      tensor {
        dtype: DT_INT32
        tensor_shape {
          dim {
            size: 1
          }
        }
        int_val: 1
      }
    }
  }
}
node {
  name: "dnn/input_from_feature_columns/input_layer/content_embedding_1/content_embedding_weights/Slice_2/size"
  op: "Const"
  attr {
    key: "_output_shapes"
    value {
      list {
        shape {
          dim {
            size: 1
          }
        }
      }
    }
  }
  attr {
    key: "dtype"
    value {
      type: DT_INT32
    }
  }
  attr {
    key: "value"
    value {
      tensor {
        dtype: DT_INT32
        tensor_shape {
          dim {
            size: 1
          }
        }
        int_val: -1
      }
    }
  }
}
node {
  name: "dnn/input_from_feature_columns/input_layer/content_embedding_1/content_embedding_weights/Slice_2"
  op: "Slice"
  input: "dnn/input_from_feature_columns/input_layer/content_embedding_1/content_embedding_weights/Shape_1"
  input: "dnn/input_from_feature_columns/input_layer/content_embedding_1/content_embedding_weights/Slice_2/begin"
  input: "dnn/input_from_feature_columns/input_layer/content_embedding_1/content_embedding_weights/Slice_2/size"
  attr {
    key: "Index"
    value {
      type: DT_INT32
    }
  }
  attr {
    key: "T"
    value {
      type: DT_INT32
    }
  }
  attr {
    key: "_output_shapes"
    value {
      list {
        shape {
          dim {
            size: 1
          }
        }
      }
    }
  }
}
node {
  name: "dnn/input_from_feature_columns/input_layer/content_embedding_1/content_embedding_weights/concat/axis"
  op: "Const"
  attr {
    key: "_output_shapes"
    value {
      list {
        shape {
        }
      }
    }
  }
  attr {
    key: "dtype"
    value {
      type: DT_INT32
    }
  }
  attr {
    key: "value"
    value {
      tensor {
        dtype: DT_INT32
        tensor_shape {
        }
        int_val: 0
      }
    }
  }
}
node {
  name: "dnn/input_from_feature_columns/input_layer/content_embedding_1/content_embedding_weights/concat"
  op: "ConcatV2"
  input: "dnn/input_from_feature_columns/input_layer/content_embedding_1/content_embedding_weights/Slice_1"
  input: "dnn/input_from_feature_columns/input_layer/content_embedding_1/content_embedding_weights/Slice_2"
  input: "dnn/input_from_feature_columns/input_layer/content_embedding_1/content_embedding_weights/concat/axis"
  attr {
    key: "N"
    value {
      i: 2
    }
  }
  attr {
    key: "T"
    value {
      type: DT_INT32
    }
  }
  attr {
    key: "Tidx"
    value {
      type: DT_INT32
    }
  }
  attr {
    key: "_output_shapes"
    value {
      list {
        shape {
          dim {
            size: 2
          }
        }
      }
    }
  }
}
node {
  name: "dnn/input_from_feature_columns/input_layer/content_embedding_1/content_embedding_weights/Reshape_2"
  op: "Reshape"
  input: "dnn/input_from_feature_columns/input_layer/content_embedding_1/content_embedding_weights"
  input: "dnn/input_from_feature_columns/input_layer/content_embedding_1/content_embedding_weights/concat"
  attr {
    key: "T"
    value {
      type: DT_FLOAT
    }
  }
  attr {
    key: "Tshape"
    value {
      type: DT_INT32
    }
  }
  attr {
    key: "_output_shapes"
    value {
      list {
        shape {
          dim {
            size: -1
          }
          dim {
            size: 141
          }
        }
      }
    }
  }
}
node {
  name: "dnn/input_from_feature_columns/input_layer/content_embedding_1/Shape"
  op: "Shape"
  input: "dnn/input_from_feature_columns/input_layer/content_embedding_1/content_embedding_weights/Reshape_2"
  attr {
    key: "T"
    value {
      type: DT_FLOAT
    }
  }
  attr {
    key: "_output_shapes"
    value {
      list {
        shape {
          dim {
            size: 2
          }
        }
      }
    }
  }
  attr {
    key: "out_type"
    value {
      type: DT_INT32
    }
  }
}
node {
  name: "dnn/input_from_feature_columns/input_layer/content_embedding_1/strided_slice/stack"
  op: "Const"
  attr {
    key: "_output_shapes"
    value {
      list {
        shape {
          dim {
            size: 1
          }
        }
      }
    }
  }
  attr {
    key: "dtype"
    value {
      type: DT_INT32
    }
  }
  attr {
    key: "value"
    value {
      tensor {
        dtype: DT_INT32
        tensor_shape {
          dim {
            size: 1
          }
        }
        int_val: 0
      }
    }
  }
}
node {
  name: "dnn/input_from_feature_columns/input_layer/content_embedding_1/strided_slice/stack_1"
  op: "Const"
  attr {
    key: "_output_shapes"
    value {
      list {
        shape {
          dim {
            size: 1
          }
        }
      }
    }
  }
  attr {
    key: "dtype"
    value {
      type: DT_INT32
    }
  }
  attr {
    key: "value"
    value {
      tensor {
        dtype: DT_INT32
        tensor_shape {
          dim {
            size: 1
          }
        }
        int_val: 1
      }
    }
  }
}
node {
  name: "dnn/input_from_feature_columns/input_layer/content_embedding_1/strided_slice/stack_2"
  op: "Const"
  attr {
    key: "_output_shapes"
    value {
      list {
        shape {
          dim {
            size: 1
          }
        }
      }
    }
  }
  attr {
    key: "dtype"
    value {
      type: DT_INT32
    }
  }
  attr {
    key: "value"
    value {
      tensor {
        dtype: DT_INT32
        tensor_shape {
          dim {
            size: 1
          }
        }
        int_val: 1
      }
    }
  }
}
node {
  name: "dnn/input_from_feature_columns/input_layer/content_embedding_1/strided_slice"
  op: "StridedSlice"
  input: "dnn/input_from_feature_columns/input_layer/content_embedding_1/Shape"
  input: "dnn/input_from_feature_columns/input_layer/content_embedding_1/strided_slice/stack"
  input: "dnn/input_from_feature_columns/input_layer/content_embedding_1/strided_slice/stack_1"
  input: "dnn/input_from_feature_columns/input_layer/content_embedding_1/strided_slice/stack_2"
  attr {
    key: "Index"
    value {
      type: DT_INT32
    }
  }
  attr {
    key: "T"
    value {
      type: DT_INT32
    }
  }
  attr {
    key: "_output_shapes"
    value {
      list {
        shape {
        }
      }
    }
  }
  attr {
    key: "begin_mask"
    value {
      i: 0
    }
  }
  attr {
    key: "ellipsis_mask"
    value {
      i: 0
    }
  }
  attr {
    key: "end_mask"
    value {
      i: 0
    }
  }
  attr {
    key: "new_axis_mask"
    value {
      i: 0
    }
  }
  attr {
    key: "shrink_axis_mask"
    value {
      i: 1
    }
  }
}
node {
  name: "dnn/input_from_feature_columns/input_layer/content_embedding_1/Reshape/shape/1"
  op: "Const"
  attr {
    key: "_output_shapes"
    value {
      list {
        shape {
        }
      }
    }
  }
  attr {
    key: "dtype"
    value {
      type: DT_INT32
    }
  }
  attr {
    key: "value"
    value {
      tensor {
        dtype: DT_INT32
        tensor_shape {
        }
        int_val: 141
      }
    }
  }
}
node {
  name: "dnn/input_from_feature_columns/input_layer/content_embedding_1/Reshape/shape"
  op: "Pack"
  input: "dnn/input_from_feature_columns/input_layer/content_embedding_1/strided_slice"
  input: "dnn/input_from_feature_columns/input_layer/content_embedding_1/Reshape/shape/1"
  attr {
    key: "N"
    value {
      i: 2
    }
  }
  attr {
    key: "T"
    value {
      type: DT_INT32
    }
  }
  attr {
    key: "_output_shapes"
    value {
      list {
        shape {
          dim {
            size: 2
          }
        }
      }
    }
  }
  attr {
    key: "axis"
    value {
      i: 0
    }
  }
}
node {
  name: "dnn/input_from_feature_columns/input_layer/content_embedding_1/Reshape"
  op: "Reshape"
  input: "dnn/input_from_feature_columns/input_layer/content_embedding_1/content_embedding_weights/Reshape_2"
  input: "dnn/input_from_feature_columns/input_layer/content_embedding_1/Reshape/shape"
  attr {
    key: "T"
    value {
      type: DT_FLOAT
    }
  }
  attr {
    key: "Tshape"
    value {
      type: DT_INT32
    }
  }
  attr {
    key: "_output_shapes"
    value {
      list {
        shape {
          dim {
            size: -1
          }
          dim {
            size: 141
          }
        }
      }
    }
  }
}
node {
  name: "dnn/input_from_feature_columns/input_layer/concat/concat_dim"
  op: "Const"
  attr {
    key: "_output_shapes"
    value {
      list {
        shape {
        }
      }
    }
  }
  attr {
    key: "dtype"
    value {
      type: DT_INT32
    }
  }
  attr {
    key: "value"
    value {
      tensor {
        dtype: DT_INT32
        tensor_shape {
        }
        int_val: -1
      }
    }
  }
}
node {
  name: "dnn/input_from_feature_columns/input_layer/concat/concat"
  op: "Identity"
  input: "dnn/input_from_feature_columns/input_layer/content_embedding_1/Reshape"
  attr {
    key: "T"
    value {
      type: DT_FLOAT
    }
  }
  attr {
    key: "_output_shapes"
    value {
      list {
        shape {
          dim {
            size: -1
          }
          dim {
            size: 141
          }
        }
      }
    }
  }
}
node {
  name: "dnn/hiddenlayer_0/kernel/Initializer/random_uniform/shape"
  op: "Const"
  attr {
    key: "_class"
    value {
      list {
        s: "loc:@dnn/hiddenlayer_0/kernel"
      }
    }
  }
  attr {
    key: "_output_shapes"
    value {
      list {
        shape {
          dim {
            size: 2
          }
        }
      }
    }
  }
  attr {
    key: "dtype"
    value {
      type: DT_INT32
    }
  }
  attr {
    key: "value"
    value {
      tensor {
        dtype: DT_INT32
        tensor_shape {
          dim {
            size: 2
          }
        }
        tensor_content: "\215\000\000\000\000\002\000\000"
      }
    }
  }
}
node {
  name: "dnn/hiddenlayer_0/kernel/Initializer/random_uniform/min"
  op: "Const"
  attr {
    key: "_class"
    value {
      list {
        s: "loc:@dnn/hiddenlayer_0/kernel"
      }
    }
  }
  attr {
    key: "_output_shapes"
    value {
      list {
        shape {
        }
      }
    }
  }
  attr {
    key: "dtype"
    value {
      type: DT_FLOAT
    }
  }
  attr {
    key: "value"
    value {
      tensor {
        dtype: DT_FLOAT
        tensor_shape {
        }
        float_val: -0.0958559438586235
      }
    }
  }
}
node {
  name: "dnn/hiddenlayer_0/kernel/Initializer/random_uniform/max"
  op: "Const"
  attr {
    key: "_class"
    value {
      list {
        s: "loc:@dnn/hiddenlayer_0/kernel"
      }
    }
  }
  attr {
    key: "_output_shapes"
    value {
      list {
        shape {
        }
      }
    }
  }
  attr {
    key: "dtype"
    value {
      type: DT_FLOAT
    }
  }
  attr {
    key: "value"
    value {
      tensor {
        dtype: DT_FLOAT
        tensor_shape {
        }
        float_val: 0.0958559438586235
      }
    }
  }
}
node {
  name: "dnn/hiddenlayer_0/kernel/Initializer/random_uniform/RandomUniform"
  op: "RandomUniform"
  input: "dnn/hiddenlayer_0/kernel/Initializer/random_uniform/shape"
  attr {
    key: "T"
    value {
      type: DT_INT32
    }
  }
  attr {
    key: "_class"
    value {
      list {
        s: "loc:@dnn/hiddenlayer_0/kernel"
      }
    }
  }
  attr {
    key: "_output_shapes"
    value {
      list {
        shape {
          dim {
            size: 141
          }
          dim {
            size: 512
          }
        }
      }
    }
  }
  attr {
    key: "dtype"
    value {
      type: DT_FLOAT
    }
  }
  attr {
    key: "seed"
    value {
      i: 0
    }
  }
  attr {
    key: "seed2"
    value {
      i: 0
    }
  }
}
node {
  name: "dnn/hiddenlayer_0/kernel/Initializer/random_uniform/sub"
  op: "Sub"
  input: "dnn/hiddenlayer_0/kernel/Initializer/random_uniform/max"
  input: "dnn/hiddenlayer_0/kernel/Initializer/random_uniform/min"
  attr {
    key: "T"
    value {
      type: DT_FLOAT
    }
  }
  attr {
    key: "_class"
    value {
      list {
        s: "loc:@dnn/hiddenlayer_0/kernel"
      }
    }
  }
  attr {
    key: "_output_shapes"
    value {
      list {
        shape {
        }
      }
    }
  }
}
node {
  name: "dnn/hiddenlayer_0/kernel/Initializer/random_uniform/mul"
  op: "Mul"
  input: "dnn/hiddenlayer_0/kernel/Initializer/random_uniform/RandomUniform"
  input: "dnn/hiddenlayer_0/kernel/Initializer/random_uniform/sub"
  attr {
    key: "T"
    value {
      type: DT_FLOAT
    }
  }
  attr {
    key: "_class"
    value {
      list {
        s: "loc:@dnn/hiddenlayer_0/kernel"
      }
    }
  }
  attr {
    key: "_output_shapes"
    value {
      list {
        shape {
          dim {
            size: 141
          }
          dim {
            size: 512
          }
        }
      }
    }
  }
}
node {
  name: "dnn/hiddenlayer_0/kernel/Initializer/random_uniform"
  op: "Add"
  input: "dnn/hiddenlayer_0/kernel/Initializer/random_uniform/mul"
  input: "dnn/hiddenlayer_0/kernel/Initializer/random_uniform/min"
  attr {
    key: "T"
    value {
      type: DT_FLOAT
    }
  }
  attr {
    key: "_class"
    value {
      list {
        s: "loc:@dnn/hiddenlayer_0/kernel"
      }
    }
  }
  attr {
    key: "_output_shapes"
    value {
      list {
        shape {
          dim {
            size: 141
          }
          dim {
            size: 512
          }
        }
      }
    }
  }
}
node {
  name: "dnn/hiddenlayer_0/kernel"
  op: "VarHandleOp"
  attr {
    key: "_class"
    value {
      list {
        s: "loc:@dnn/hiddenlayer_0/kernel"
      }
    }
  }
  attr {
    key: "_output_shapes"
    value {
      list {
        shape {
        }
      }
    }
  }
  attr {
    key: "container"
    value {
      s: ""
    }
  }
  attr {
    key: "dtype"
    value {
      type: DT_FLOAT
    }
  }
  attr {
    key: "shape"
    value {
      shape {
        dim {
          size: 141
        }
        dim {
          size: 512
        }
      }
    }
  }
  attr {
    key: "shared_name"
    value {
      s: "dnn/hiddenlayer_0/kernel"
    }
  }
}
node {
  name: "dnn/hiddenlayer_0/kernel/IsInitialized/VarIsInitializedOp"
  op: "VarIsInitializedOp"
  input: "dnn/hiddenlayer_0/kernel"
  attr {
    key: "_output_shapes"
    value {
      list {
        shape {
        }
      }
    }
  }
}
node {
  name: "dnn/hiddenlayer_0/kernel/Assign"
  op: "AssignVariableOp"
  input: "dnn/hiddenlayer_0/kernel"
  input: "dnn/hiddenlayer_0/kernel/Initializer/random_uniform"
  attr {
    key: "dtype"
    value {
      type: DT_FLOAT
    }
  }
}
node {
  name: "dnn/hiddenlayer_0/kernel/Read/ReadVariableOp"
  op: "ReadVariableOp"
  input: "dnn/hiddenlayer_0/kernel"
  attr {
    key: "_output_shapes"
    value {
      list {
        shape {
          dim {
            size: 141
          }
          dim {
            size: 512
          }
        }
      }
    }
  }
  attr {
    key: "dtype"
    value {
      type: DT_FLOAT
    }
  }
}
node {
  name: "dnn/hiddenlayer_0/bias/Initializer/zeros"
  op: "Const"
  attr {
    key: "_class"
    value {
      list {
        s: "loc:@dnn/hiddenlayer_0/bias"
      }
    }
  }
  attr {
    key: "_output_shapes"
    value {
      list {
        shape {
          dim {
            size: 512
          }
        }
      }
    }
  }
  attr {
    key: "dtype"
    value {
      type: DT_FLOAT
    }
  }
  attr {
    key: "value"
    value {
      tensor {
        dtype: DT_FLOAT
        tensor_shape {
          dim {
            size: 512
          }
        }
        float_val: 0.0
      }
    }
  }
}
node {
  name: "dnn/hiddenlayer_0/bias"
  op: "VarHandleOp"
  attr {
    key: "_class"
    value {
      list {
        s: "loc:@dnn/hiddenlayer_0/bias"
      }
    }
  }
  attr {
    key: "_output_shapes"
    value {
      list {
        shape {
        }
      }
    }
  }
  attr {
    key: "container"
    value {
      s: ""
    }
  }
  attr {
    key: "dtype"
    value {
      type: DT_FLOAT
    }
  }
  attr {
    key: "shape"
    value {
      shape {
        dim {
          size: 512
        }
      }
    }
  }
  attr {
    key: "shared_name"
    value {
      s: "dnn/hiddenlayer_0/bias"
    }
  }
}
node {
  name: "dnn/hiddenlayer_0/bias/IsInitialized/VarIsInitializedOp"
  op: "VarIsInitializedOp"
  input: "dnn/hiddenlayer_0/bias"
  attr {
    key: "_output_shapes"
    value {
      list {
        shape {
        }
      }
    }
  }
}
node {
  name: "dnn/hiddenlayer_0/bias/Assign"
  op: "AssignVariableOp"
  input: "dnn/hiddenlayer_0/bias"
  input: "dnn/hiddenlayer_0/bias/Initializer/zeros"
  attr {
    key: "dtype"
    value {
      type: DT_FLOAT
    }
  }
}
node {
  name: "dnn/hiddenlayer_0/bias/Read/ReadVariableOp"
  op: "ReadVariableOp"
  input: "dnn/hiddenlayer_0/bias"
  attr {
    key: "_output_shapes"
    value {
      list {
        shape {
          dim {
            size: 512
          }
        }
      }
    }
  }
  attr {
    key: "dtype"
    value {
      type: DT_FLOAT
    }
  }
}
node {
  name: "dnn/hiddenlayer_0/MatMul/ReadVariableOp"
  op: "ReadVariableOp"
  input: "dnn/hiddenlayer_0/kernel"
  attr {
    key: "_output_shapes"
    value {
      list {
        shape {
          dim {
            size: 141
          }
          dim {
            size: 512
          }
        }
      }
    }
  }
  attr {
    key: "dtype"
    value {
      type: DT_FLOAT
    }
  }
}
node {
  name: "dnn/hiddenlayer_0/MatMul"
  op: "MatMul"
  input: "dnn/input_from_feature_columns/input_layer/concat/concat"
  input: "dnn/hiddenlayer_0/MatMul/ReadVariableOp"
  attr {
    key: "T"
    value {
      type: DT_FLOAT
    }
  }
  attr {
    key: "_output_shapes"
    value {
      list {
        shape {
          dim {
            size: -1
          }
          dim {
            size: 512
          }
        }
      }
    }
  }
  attr {
    key: "transpose_a"
    value {
      b: false
    }
  }
  attr {
    key: "transpose_b"
    value {
      b: false
    }
  }
}
node {
  name: "dnn/hiddenlayer_0/BiasAdd/ReadVariableOp"
  op: "ReadVariableOp"
  input: "dnn/hiddenlayer_0/bias"
  attr {
    key: "_output_shapes"
    value {
      list {
        shape {
          dim {
            size: 512
          }
        }
      }
    }
  }
  attr {
    key: "dtype"
    value {
      type: DT_FLOAT
    }
  }
}
node {
  name: "dnn/hiddenlayer_0/BiasAdd"
  op: "BiasAdd"
  input: "dnn/hiddenlayer_0/MatMul"
  input: "dnn/hiddenlayer_0/BiasAdd/ReadVariableOp"
  attr {
    key: "T"
    value {
      type: DT_FLOAT
    }
  }
  attr {
    key: "_output_shapes"
    value {
      list {
        shape {
          dim {
            size: -1
          }
          dim {
            size: 512
          }
        }
      }
    }
  }
  attr {
    key: "data_format"
    value {
      s: "NHWC"
    }
  }
}
node {
  name: "dnn/hiddenlayer_0/Relu"
  op: "Relu"
  input: "dnn/hiddenlayer_0/BiasAdd"
  attr {
    key: "T"
    value {
      type: DT_FLOAT
    }
  }
  attr {
    key: "_output_shapes"
    value {
      list {
        shape {
          dim {
            size: -1
          }
          dim {
            size: 512
          }
        }
      }
    }
  }
}
node {
  name: "dnn/dropout/dropout/Const"
  op: "Const"
  attr {
    key: "_output_shapes"
    value {
      list {
        shape {
        }
      }
    }
  }
  attr {
    key: "dtype"
    value {
      type: DT_FLOAT
    }
  }
  attr {
    key: "value"
    value {
      tensor {
        dtype: DT_FLOAT
        tensor_shape {
        }
        float_val: 2.0
      }
    }
  }
}
node {
  name: "dnn/dropout/dropout/Mul"
  op: "Mul"
  input: "dnn/hiddenlayer_0/Relu"
  input: "dnn/dropout/dropout/Const"
  attr {
    key: "T"
    value {
      type: DT_FLOAT
    }
  }
  attr {
    key: "_output_shapes"
    value {
      list {
        shape {
          dim {
            size: -1
          }
          dim {
            size: 512
          }
        }
      }
    }
  }
}
node {
  name: "dnn/dropout/dropout/Shape"
  op: "Shape"
  input: "dnn/hiddenlayer_0/Relu"
  attr {
    key: "T"
    value {
      type: DT_FLOAT
    }
  }
  attr {
    key: "_output_shapes"
    value {
      list {
        shape {
          dim {
            size: 2
          }
        }
      }
    }
  }
  attr {
    key: "out_type"
    value {
      type: DT_INT32
    }
  }
}
node {
  name: "dnn/dropout/dropout/random_uniform/RandomUniform"
  op: "RandomUniform"
  input: "dnn/dropout/dropout/Shape"
  attr {
    key: "T"
    value {
      type: DT_INT32
    }
  }
  attr {
    key: "_output_shapes"
    value {
      list {
        shape {
          dim {
            size: -1
          }
          dim {
            size: 512
          }
        }
      }
    }
  }
  attr {
    key: "dtype"
    value {
      type: DT_FLOAT
    }
  }
  attr {
    key: "seed"
    value {
      i: 0
    }
  }
  attr {
    key: "seed2"
    value {
      i: 0
    }
  }
}
node {
  name: "dnn/dropout/dropout/GreaterEqual/y"
  op: "Const"
  attr {
    key: "_output_shapes"
    value {
      list {
        shape {
        }
      }
    }
  }
  attr {
    key: "dtype"
    value {
      type: DT_FLOAT
    }
  }
  attr {
    key: "value"
    value {
      tensor {
        dtype: DT_FLOAT
        tensor_shape {
        }
        float_val: 0.5
      }
    }
  }
}
node {
  name: "dnn/dropout/dropout/GreaterEqual"
  op: "GreaterEqual"
  input: "dnn/dropout/dropout/random_uniform/RandomUniform"
  input: "dnn/dropout/dropout/GreaterEqual/y"
  attr {
    key: "T"
    value {
      type: DT_FLOAT
    }
  }
  attr {
    key: "_output_shapes"
    value {
      list {
        shape {
          dim {
            size: -1
          }
          dim {
            size: 512
          }
        }
      }
    }
  }
}
node {
  name: "dnn/dropout/dropout/Cast"
  op: "Cast"
  input: "dnn/dropout/dropout/GreaterEqual"
  attr {
    key: "DstT"
    value {
      type: DT_FLOAT
    }
  }
  attr {
    key: "SrcT"
    value {
      type: DT_BOOL
    }
  }
  attr {
    key: "Truncate"
    value {
      b: false
    }
  }
  attr {
    key: "_output_shapes"
    value {
      list {
        shape {
          dim {
            size: -1
          }
          dim {
            size: 512
          }
        }
      }
    }
  }
}
node {
  name: "dnn/dropout/dropout/Mul_1"
  op: "Mul"
  input: "dnn/dropout/dropout/Mul"
  input: "dnn/dropout/dropout/Cast"
  attr {
    key: "T"
    value {
      type: DT_FLOAT
    }
  }
  attr {
    key: "_output_shapes"
    value {
      list {
        shape {
          dim {
            size: -1
          }
          dim {
            size: 512
          }
        }
      }
    }
  }
}
node {
  name: "dnn/zero_fraction/Size"
  op: "Size"
  input: "dnn/dropout/dropout/Mul_1"
  attr {
    key: "T"
    value {
      type: DT_FLOAT
    }
  }
  attr {
    key: "_output_shapes"
    value {
      list {
        shape {
        }
      }
    }
  }
  attr {
    key: "out_type"
    value {
      type: DT_INT64
    }
  }
}
node {
  name: "dnn/zero_fraction/LessEqual/y"
  op: "Const"
  attr {
    key: "_output_shapes"
    value {
      list {
        shape {
        }
      }
    }
  }
  attr {
    key: "dtype"
    value {
      type: DT_INT64
    }
  }
  attr {
    key: "value"
    value {
      tensor {
        dtype: DT_INT64
        tensor_shape {
        }
        int64_val: 2147483647
      }
    }
  }
}
node {
  name: "dnn/zero_fraction/LessEqual"
  op: "LessEqual"
  input: "dnn/zero_fraction/Size"
  input: "dnn/zero_fraction/LessEqual/y"
  attr {
    key: "T"
    value {
      type: DT_INT64
    }
  }
  attr {
    key: "_output_shapes"
    value {
      list {
        shape {
        }
      }
    }
  }
}
node {
  name: "dnn/zero_fraction/cond"
  op: "StatelessIf"
  input: "dnn/zero_fraction/LessEqual"
  input: "dnn/dropout/dropout/Mul_1"
  attr {
    key: "Tcond"
    value {
      type: DT_BOOL
    }
  }
  attr {
    key: "Tin"
    value {
      list {
        type: DT_FLOAT
      }
    }
  }
  attr {
    key: "Tout"
    value {
      list {
        type: DT_INT64
        type: DT_VARIANT
        type: DT_VARIANT
        type: DT_VARIANT
        type: DT_VARIANT
        type: DT_VARIANT
      }
    }
  }
  attr {
    key: "_lower_using_switch_merge"
    value {
      b: true
    }
  }
  attr {
    key: "_output_shapes"
    value {
      list {
        shape {
        }
        shape {
        }
        shape {
        }
        shape {
        }
        shape {
        }
        shape {
        }
      }
    }
  }
  attr {
    key: "_read_only_resource_inputs"
    value {
      list {
      }
    }
  }
  attr {
    key: "else_branch"
    value {
      func {
        name: "dnn_zero_fraction_cond_false_278"
      }
    }
  }
  attr {
    key: "output_shapes"
    value {
      list {
        shape {
        }
        shape {
        }
        shape {
        }
        shape {
        }
        shape {
        }
        shape {
        }
      }
    }
  }
  attr {
    key: "then_branch"
    value {
      func {
        name: "dnn_zero_fraction_cond_true_277"
      }
    }
  }
}
node {
  name: "dnn/zero_fraction/cond/Identity"
  op: "Identity"
  input: "dnn/zero_fraction/cond"
  attr {
    key: "T"
    value {
      type: DT_INT64
    }
  }
  attr {
    key: "_output_shapes"
    value {
      list {
        shape {
        }
      }
    }
  }
}
node {
  name: "dnn/zero_fraction/cond/Identity_1"
  op: "Identity"
  input: "dnn/zero_fraction/cond:1"
  attr {
    key: "T"
    value {
      type: DT_VARIANT
    }
  }
  attr {
    key: "_output_shapes"
    value {
      list {
        shape {
        }
      }
    }
  }
}
node {
  name: "dnn/zero_fraction/cond/Identity_2"
  op: "Identity"
  input: "dnn/zero_fraction/cond:2"
  attr {
    key: "T"
    value {
      type: DT_VARIANT
    }
  }
  attr {
    key: "_output_shapes"
    value {
      list {
        shape {
        }
      }
    }
  }
}
node {
  name: "dnn/zero_fraction/cond/Identity_3"
  op: "Identity"
  input: "dnn/zero_fraction/cond:3"
  attr {
    key: "T"
    value {
      type: DT_VARIANT
    }
  }
  attr {
    key: "_output_shapes"
    value {
      list {
        shape {
        }
      }
    }
  }
}
node {
  name: "dnn/zero_fraction/cond/Identity_4"
  op: "Identity"
  input: "dnn/zero_fraction/cond:4"
  attr {
    key: "T"
    value {
      type: DT_VARIANT
    }
  }
  attr {
    key: "_output_shapes"
    value {
      list {
        shape {
        }
      }
    }
  }
}
node {
  name: "dnn/zero_fraction/cond/Identity_5"
  op: "Identity"
  input: "dnn/zero_fraction/cond:5"
  attr {
    key: "T"
    value {
      type: DT_VARIANT
    }
  }
  attr {
    key: "_output_shapes"
    value {
      list {
        shape {
        }
      }
    }
  }
}
node {
  name: "dnn/zero_fraction/counts_to_fraction/sub"
  op: "Sub"
  input: "dnn/zero_fraction/Size"
  input: "dnn/zero_fraction/cond/Identity"
  attr {
    key: "T"
    value {
      type: DT_INT64
    }
  }
  attr {
    key: "_output_shapes"
    value {
      list {
        shape {
        }
      }
    }
  }
}
node {
  name: "dnn/zero_fraction/counts_to_fraction/Cast"
  op: "Cast"
  input: "dnn/zero_fraction/counts_to_fraction/sub"
  attr {
    key: "DstT"
    value {
      type: DT_FLOAT
    }
  }
  attr {
    key: "SrcT"
    value {
      type: DT_INT64
    }
  }
  attr {
    key: "Truncate"
    value {
      b: false
    }
  }
  attr {
    key: "_output_shapes"
    value {
      list {
        shape {
        }
      }
    }
  }
}
node {
  name: "dnn/zero_fraction/counts_to_fraction/Cast_1"
  op: "Cast"
  input: "dnn/zero_fraction/Size"
  attr {
    key: "DstT"
    value {
      type: DT_FLOAT
    }
  }
  attr {
    key: "SrcT"
    value {
      type: DT_INT64
    }
  }
  attr {
    key: "Truncate"
    value {
      b: false
    }
  }
  attr {
    key: "_output_shapes"
    value {
      list {
        shape {
        }
      }
    }
  }
}
node {
  name: "dnn/zero_fraction/counts_to_fraction/truediv"
  op: "RealDiv"
  input: "dnn/zero_fraction/counts_to_fraction/Cast"
  input: "dnn/zero_fraction/counts_to_fraction/Cast_1"
  attr {
    key: "T"
    value {
      type: DT_FLOAT
    }
  }
  attr {
    key: "_output_shapes"
    value {
      list {
        shape {
        }
      }
    }
  }
}
node {
  name: "dnn/zero_fraction/fraction"
  op: "Identity"
  input: "dnn/zero_fraction/counts_to_fraction/truediv"
  attr {
    key: "T"
    value {
      type: DT_FLOAT
    }
  }
  attr {
    key: "_output_shapes"
    value {
      list {
        shape {
        }
      }
    }
  }
}
node {
  name: "dnn/hiddenlayer_0/fraction_of_zero_values/tags"
  op: "Const"
  attr {
    key: "_output_shapes"
    value {
      list {
        shape {
        }
      }
    }
  }
  attr {
    key: "dtype"
    value {
      type: DT_STRING
    }
  }
  attr {
    key: "value"
    value {
      tensor {
        dtype: DT_STRING
        tensor_shape {
        }
        string_val: "dnn/hiddenlayer_0/fraction_of_zero_values"
      }
    }
  }
}
node {
  name: "dnn/hiddenlayer_0/fraction_of_zero_values"
  op: "ScalarSummary"
  input: "dnn/hiddenlayer_0/fraction_of_zero_values/tags"
  input: "dnn/zero_fraction/fraction"
  attr {
    key: "T"
    value {
      type: DT_FLOAT
    }
  }
  attr {
    key: "_output_shapes"
    value {
      list {
        shape {
        }
      }
    }
  }
}
node {
  name: "dnn/hiddenlayer_0/activation/tag"
  op: "Const"
  attr {
    key: "_output_shapes"
    value {
      list {
        shape {
        }
      }
    }
  }
  attr {
    key: "dtype"
    value {
      type: DT_STRING
    }
  }
  attr {
    key: "value"
    value {
      tensor {
        dtype: DT_STRING
        tensor_shape {
        }
        string_val: "dnn/hiddenlayer_0/activation"
      }
    }
  }
}
node {
  name: "dnn/hiddenlayer_0/activation"
  op: "HistogramSummary"
  input: "dnn/hiddenlayer_0/activation/tag"
  input: "dnn/dropout/dropout/Mul_1"
  attr {
    key: "T"
    value {
      type: DT_FLOAT
    }
  }
  attr {
    key: "_output_shapes"
    value {
      list {
        shape {
        }
      }
    }
  }
}
node {
  name: "dnn/hiddenlayer_1/kernel/Initializer/random_uniform/shape"
  op: "Const"
  attr {
    key: "_class"
    value {
      list {
        s: "loc:@dnn/hiddenlayer_1/kernel"
      }
    }
  }
  attr {
    key: "_output_shapes"
    value {
      list {
        shape {
          dim {
            size: 2
          }
        }
      }
    }
  }
  attr {
    key: "dtype"
    value {
      type: DT_INT32
    }
  }
  attr {
    key: "value"
    value {
      tensor {
        dtype: DT_INT32
        tensor_shape {
          dim {
            size: 2
          }
        }
        tensor_content: "\000\002\000\000 \000\000\000"
      }
    }
  }
}
node {
  name: "dnn/hiddenlayer_1/kernel/Initializer/random_uniform/min"
  op: "Const"
  attr {
    key: "_class"
    value {
      list {
        s: "loc:@dnn/hiddenlayer_1/kernel"
      }
    }
  }
  attr {
    key: "_output_shapes"
    value {
      list {
        shape {
        }
      }
    }
  }
  attr {
    key: "dtype"
    value {
      type: DT_FLOAT
    }
  }
  attr {
    key: "value"
    value {
      tensor {
        dtype: DT_FLOAT
        tensor_shape {
        }
        float_val: -0.10502100735902786
      }
    }
  }
}
node {
  name: "dnn/hiddenlayer_1/kernel/Initializer/random_uniform/max"
  op: "Const"
  attr {
    key: "_class"
    value {
      list {
        s: "loc:@dnn/hiddenlayer_1/kernel"
      }
    }
  }
  attr {
    key: "_output_shapes"
    value {
      list {
        shape {
        }
      }
    }
  }
  attr {
    key: "dtype"
    value {
      type: DT_FLOAT
    }
  }
  attr {
    key: "value"
    value {
      tensor {
        dtype: DT_FLOAT
        tensor_shape {
        }
        float_val: 0.10502100735902786
      }
    }
  }
}
node {
  name: "dnn/hiddenlayer_1/kernel/Initializer/random_uniform/RandomUniform"
  op: "RandomUniform"
  input: "dnn/hiddenlayer_1/kernel/Initializer/random_uniform/shape"
  attr {
    key: "T"
    value {
      type: DT_INT32
    }
  }
  attr {
    key: "_class"
    value {
      list {
        s: "loc:@dnn/hiddenlayer_1/kernel"
      }
    }
  }
  attr {
    key: "_output_shapes"
    value {
      list {
        shape {
          dim {
            size: 512
          }
          dim {
            size: 32
          }
        }
      }
    }
  }
  attr {
    key: "dtype"
    value {
      type: DT_FLOAT
    }
  }
  attr {
    key: "seed"
    value {
      i: 0
    }
  }
  attr {
    key: "seed2"
    value {
      i: 0
    }
  }
}
node {
  name: "dnn/hiddenlayer_1/kernel/Initializer/random_uniform/sub"
  op: "Sub"
  input: "dnn/hiddenlayer_1/kernel/Initializer/random_uniform/max"
  input: "dnn/hiddenlayer_1/kernel/Initializer/random_uniform/min"
  attr {
    key: "T"
    value {
      type: DT_FLOAT
    }
  }
  attr {
    key: "_class"
    value {
      list {
        s: "loc:@dnn/hiddenlayer_1/kernel"
      }
    }
  }
  attr {
    key: "_output_shapes"
    value {
      list {
        shape {
        }
      }
    }
  }
}
node {
  name: "dnn/hiddenlayer_1/kernel/Initializer/random_uniform/mul"
  op: "Mul"
  input: "dnn/hiddenlayer_1/kernel/Initializer/random_uniform/RandomUniform"
  input: "dnn/hiddenlayer_1/kernel/Initializer/random_uniform/sub"
  attr {
    key: "T"
    value {
      type: DT_FLOAT
    }
  }
  attr {
    key: "_class"
    value {
      list {
        s: "loc:@dnn/hiddenlayer_1/kernel"
      }
    }
  }
  attr {
    key: "_output_shapes"
    value {
      list {
        shape {
          dim {
            size: 512
          }
          dim {
            size: 32
          }
        }
      }
    }
  }
}
node {
  name: "dnn/hiddenlayer_1/kernel/Initializer/random_uniform"
  op: "Add"
  input: "dnn/hiddenlayer_1/kernel/Initializer/random_uniform/mul"
  input: "dnn/hiddenlayer_1/kernel/Initializer/random_uniform/min"
  attr {
    key: "T"
    value {
      type: DT_FLOAT
    }
  }
  attr {
    key: "_class"
    value {
      list {
        s: "loc:@dnn/hiddenlayer_1/kernel"
      }
    }
  }
  attr {
    key: "_output_shapes"
    value {
      list {
        shape {
          dim {
            size: 512
          }
          dim {
            size: 32
          }
        }
      }
    }
  }
}
node {
  name: "dnn/hiddenlayer_1/kernel"
  op: "VarHandleOp"
  attr {
    key: "_class"
    value {
      list {
        s: "loc:@dnn/hiddenlayer_1/kernel"
      }
    }
  }
  attr {
    key: "_output_shapes"
    value {
      list {
        shape {
        }
      }
    }
  }
  attr {
    key: "container"
    value {
      s: ""
    }
  }
  attr {
    key: "dtype"
    value {
      type: DT_FLOAT
    }
  }
  attr {
    key: "shape"
    value {
      shape {
        dim {
          size: 512
        }
        dim {
          size: 32
        }
      }
    }
  }
  attr {
    key: "shared_name"
    value {
      s: "dnn/hiddenlayer_1/kernel"
    }
  }
}
node {
  name: "dnn/hiddenlayer_1/kernel/IsInitialized/VarIsInitializedOp"
  op: "VarIsInitializedOp"
  input: "dnn/hiddenlayer_1/kernel"
  attr {
    key: "_output_shapes"
    value {
      list {
        shape {
        }
      }
    }
  }
}
node {
  name: "dnn/hiddenlayer_1/kernel/Assign"
  op: "AssignVariableOp"
  input: "dnn/hiddenlayer_1/kernel"
  input: "dnn/hiddenlayer_1/kernel/Initializer/random_uniform"
  attr {
    key: "dtype"
    value {
      type: DT_FLOAT
    }
  }
}
node {
  name: "dnn/hiddenlayer_1/kernel/Read/ReadVariableOp"
  op: "ReadVariableOp"
  input: "dnn/hiddenlayer_1/kernel"
  attr {
    key: "_output_shapes"
    value {
      list {
        shape {
          dim {
            size: 512
          }
          dim {
            size: 32
          }
        }
      }
    }
  }
  attr {
    key: "dtype"
    value {
      type: DT_FLOAT
    }
  }
}
node {
  name: "dnn/hiddenlayer_1/bias/Initializer/zeros"
  op: "Const"
  attr {
    key: "_class"
    value {
      list {
        s: "loc:@dnn/hiddenlayer_1/bias"
      }
    }
  }
  attr {
    key: "_output_shapes"
    value {
      list {
        shape {
          dim {
            size: 32
          }
        }
      }
    }
  }
  attr {
    key: "dtype"
    value {
      type: DT_FLOAT
    }
  }
  attr {
    key: "value"
    value {
      tensor {
        dtype: DT_FLOAT
        tensor_shape {
          dim {
            size: 32
          }
        }
        float_val: 0.0
      }
    }
  }
}
node {
  name: "dnn/hiddenlayer_1/bias"
  op: "VarHandleOp"
  attr {
    key: "_class"
    value {
      list {
        s: "loc:@dnn/hiddenlayer_1/bias"
      }
    }
  }
  attr {
    key: "_output_shapes"
    value {
      list {
        shape {
        }
      }
    }
  }
  attr {
    key: "container"
    value {
      s: ""
    }
  }
  attr {
    key: "dtype"
    value {
      type: DT_FLOAT
    }
  }
  attr {
    key: "shape"
    value {
      shape {
        dim {
          size: 32
        }
      }
    }
  }
  attr {
    key: "shared_name"
    value {
      s: "dnn/hiddenlayer_1/bias"
    }
  }
}
node {
  name: "dnn/hiddenlayer_1/bias/IsInitialized/VarIsInitializedOp"
  op: "VarIsInitializedOp"
  input: "dnn/hiddenlayer_1/bias"
  attr {
    key: "_output_shapes"
    value {
      list {
        shape {
        }
      }
    }
  }
}
node {
  name: "dnn/hiddenlayer_1/bias/Assign"
  op: "AssignVariableOp"
  input: "dnn/hiddenlayer_1/bias"
  input: "dnn/hiddenlayer_1/bias/Initializer/zeros"
  attr {
    key: "dtype"
    value {
      type: DT_FLOAT
    }
  }
}
node {
  name: "dnn/hiddenlayer_1/bias/Read/ReadVariableOp"
  op: "ReadVariableOp"
  input: "dnn/hiddenlayer_1/bias"
  attr {
    key: "_output_shapes"
    value {
      list {
        shape {
          dim {
            size: 32
          }
        }
      }
    }
  }
  attr {
    key: "dtype"
    value {
      type: DT_FLOAT
    }
  }
}
node {
  name: "dnn/hiddenlayer_1/MatMul/ReadVariableOp"
  op: "ReadVariableOp"
  input: "dnn/hiddenlayer_1/kernel"
  attr {
    key: "_output_shapes"
    value {
      list {
        shape {
          dim {
            size: 512
          }
          dim {
            size: 32
          }
        }
      }
    }
  }
  attr {
    key: "dtype"
    value {
      type: DT_FLOAT
    }
  }
}
node {
  name: "dnn/hiddenlayer_1/MatMul"
  op: "MatMul"
  input: "dnn/dropout/dropout/Mul_1"
  input: "dnn/hiddenlayer_1/MatMul/ReadVariableOp"
  attr {
    key: "T"
    value {
      type: DT_FLOAT
    }
  }
  attr {
    key: "_output_shapes"
    value {
      list {
        shape {
          dim {
            size: -1
          }
          dim {
            size: 32
          }
        }
      }
    }
  }
  attr {
    key: "transpose_a"
    value {
      b: false
    }
  }
  attr {
    key: "transpose_b"
    value {
      b: false
    }
  }
}
node {
  name: "dnn/hiddenlayer_1/BiasAdd/ReadVariableOp"
  op: "ReadVariableOp"
  input: "dnn/hiddenlayer_1/bias"
  attr {
    key: "_output_shapes"
    value {
      list {
        shape {
          dim {
            size: 32
          }
        }
      }
    }
  }
  attr {
    key: "dtype"
    value {
      type: DT_FLOAT
    }
  }
}
node {
  name: "dnn/hiddenlayer_1/BiasAdd"
  op: "BiasAdd"
  input: "dnn/hiddenlayer_1/MatMul"
  input: "dnn/hiddenlayer_1/BiasAdd/ReadVariableOp"
  attr {
    key: "T"
    value {
      type: DT_FLOAT
    }
  }
  attr {
    key: "_output_shapes"
    value {
      list {
        shape {
          dim {
            size: -1
          }
          dim {
            size: 32
          }
        }
      }
    }
  }
  attr {
    key: "data_format"
    value {
      s: "NHWC"
    }
  }
}
node {
  name: "dnn/hiddenlayer_1/Relu"
  op: "Relu"
  input: "dnn/hiddenlayer_1/BiasAdd"
  attr {
    key: "T"
    value {
      type: DT_FLOAT
    }
  }
  attr {
    key: "_output_shapes"
    value {
      list {
        shape {
          dim {
            size: -1
          }
          dim {
            size: 32
          }
        }
      }
    }
  }
}
node {
  name: "dnn/dropout_1/dropout/Const"
  op: "Const"
  attr {
    key: "_output_shapes"
    value {
      list {
        shape {
        }
      }
    }
  }
  attr {
    key: "dtype"
    value {
      type: DT_FLOAT
    }
  }
  attr {
    key: "value"
    value {
      tensor {
        dtype: DT_FLOAT
        tensor_shape {
        }
        float_val: 2.0
      }
    }
  }
}
node {
  name: "dnn/dropout_1/dropout/Mul"
  op: "Mul"
  input: "dnn/hiddenlayer_1/Relu"
  input: "dnn/dropout_1/dropout/Const"
  attr {
    key: "T"
    value {
      type: DT_FLOAT
    }
  }
  attr {
    key: "_output_shapes"
    value {
      list {
        shape {
          dim {
            size: -1
          }
          dim {
            size: 32
          }
        }
      }
    }
  }
}
node {
  name: "dnn/dropout_1/dropout/Shape"
  op: "Shape"
  input: "dnn/hiddenlayer_1/Relu"
  attr {
    key: "T"
    value {
      type: DT_FLOAT
    }
  }
  attr {
    key: "_output_shapes"
    value {
      list {
        shape {
          dim {
            size: 2
          }
        }
      }
    }
  }
  attr {
    key: "out_type"
    value {
      type: DT_INT32
    }
  }
}
node {
  name: "dnn/dropout_1/dropout/random_uniform/RandomUniform"
  op: "RandomUniform"
  input: "dnn/dropout_1/dropout/Shape"
  attr {
    key: "T"
    value {
      type: DT_INT32
    }
  }
  attr {
    key: "_output_shapes"
    value {
      list {
        shape {
          dim {
            size: -1
          }
          dim {
            size: 32
          }
        }
      }
    }
  }
  attr {
    key: "dtype"
    value {
      type: DT_FLOAT
    }
  }
  attr {
    key: "seed"
    value {
      i: 0
    }
  }
  attr {
    key: "seed2"
    value {
      i: 0
    }
  }
}
node {
  name: "dnn/dropout_1/dropout/GreaterEqual/y"
  op: "Const"
  attr {
    key: "_output_shapes"
    value {
      list {
        shape {
        }
      }
    }
  }
  attr {
    key: "dtype"
    value {
      type: DT_FLOAT
    }
  }
  attr {
    key: "value"
    value {
      tensor {
        dtype: DT_FLOAT
        tensor_shape {
        }
        float_val: 0.5
      }
    }
  }
}
node {
  name: "dnn/dropout_1/dropout/GreaterEqual"
  op: "GreaterEqual"
  input: "dnn/dropout_1/dropout/random_uniform/RandomUniform"
  input: "dnn/dropout_1/dropout/GreaterEqual/y"
  attr {
    key: "T"
    value {
      type: DT_FLOAT
    }
  }
  attr {
    key: "_output_shapes"
    value {
      list {
        shape {
          dim {
            size: -1
          }
          dim {
            size: 32
          }
        }
      }
    }
  }
}
node {
  name: "dnn/dropout_1/dropout/Cast"
  op: "Cast"
  input: "dnn/dropout_1/dropout/GreaterEqual"
  attr {
    key: "DstT"
    value {
      type: DT_FLOAT
    }
  }
  attr {
    key: "SrcT"
    value {
      type: DT_BOOL
    }
  }
  attr {
    key: "Truncate"
    value {
      b: false
    }
  }
  attr {
    key: "_output_shapes"
    value {
      list {
        shape {
          dim {
            size: -1
          }
          dim {
            size: 32
          }
        }
      }
    }
  }
}
node {
  name: "dnn/dropout_1/dropout/Mul_1"
  op: "Mul"
  input: "dnn/dropout_1/dropout/Mul"
  input: "dnn/dropout_1/dropout/Cast"
  attr {
    key: "T"
    value {
      type: DT_FLOAT
    }
  }
  attr {
    key: "_output_shapes"
    value {
      list {
        shape {
          dim {
            size: -1
          }
          dim {
            size: 32
          }
        }
      }
    }
  }
}
node {
  name: "dnn/zero_fraction_1/Size"
  op: "Size"
  input: "dnn/dropout_1/dropout/Mul_1"
  attr {
    key: "T"
    value {
      type: DT_FLOAT
    }
  }
  attr {
    key: "_output_shapes"
    value {
      list {
        shape {
        }
      }
    }
  }
  attr {
    key: "out_type"
    value {
      type: DT_INT64
    }
  }
}
node {
  name: "dnn/zero_fraction_1/LessEqual/y"
  op: "Const"
  attr {
    key: "_output_shapes"
    value {
      list {
        shape {
        }
      }
    }
  }
  attr {
    key: "dtype"
    value {
      type: DT_INT64
    }
  }
  attr {
    key: "value"
    value {
      tensor {
        dtype: DT_INT64
        tensor_shape {
        }
        int64_val: 2147483647
      }
    }
  }
}
node {
  name: "dnn/zero_fraction_1/LessEqual"
  op: "LessEqual"
  input: "dnn/zero_fraction_1/Size"
  input: "dnn/zero_fraction_1/LessEqual/y"
  attr {
    key: "T"
    value {
      type: DT_INT64
    }
  }
  attr {
    key: "_output_shapes"
    value {
      list {
        shape {
        }
      }
    }
  }
}
node {
  name: "dnn/zero_fraction_1/cond"
  op: "StatelessIf"
  input: "dnn/zero_fraction_1/LessEqual"
  input: "dnn/dropout_1/dropout/Mul_1"
  attr {
    key: "Tcond"
    value {
      type: DT_BOOL
    }
  }
  attr {
    key: "Tin"
    value {
      list {
        type: DT_FLOAT
      }
    }
  }
  attr {
    key: "Tout"
    value {
      list {
        type: DT_INT64
        type: DT_VARIANT
        type: DT_VARIANT
        type: DT_VARIANT
        type: DT_VARIANT
        type: DT_VARIANT
      }
    }
  }
  attr {
    key: "_lower_using_switch_merge"
    value {
      b: true
    }
  }
  attr {
    key: "_output_shapes"
    value {
      list {
        shape {
        }
        shape {
        }
        shape {
        }
        shape {
        }
        shape {
        }
        shape {
        }
      }
    }
  }
  attr {
    key: "_read_only_resource_inputs"
    value {
      list {
      }
    }
  }
  attr {
    key: "else_branch"
    value {
      func {
        name: "dnn_zero_fraction_1_cond_false_356"
      }
    }
  }
  attr {
    key: "output_shapes"
    value {
      list {
        shape {
        }
        shape {
        }
        shape {
        }
        shape {
        }
        shape {
        }
        shape {
        }
      }
    }
  }
  attr {
    key: "then_branch"
    value {
      func {
        name: "dnn_zero_fraction_1_cond_true_355"
      }
    }
  }
}
node {
  name: "dnn/zero_fraction_1/cond/Identity"
  op: "Identity"
  input: "dnn/zero_fraction_1/cond"
  attr {
    key: "T"
    value {
      type: DT_INT64
    }
  }
  attr {
    key: "_output_shapes"
    value {
      list {
        shape {
        }
      }
    }
  }
}
node {
  name: "dnn/zero_fraction_1/cond/Identity_1"
  op: "Identity"
  input: "dnn/zero_fraction_1/cond:1"
  attr {
    key: "T"
    value {
      type: DT_VARIANT
    }
  }
  attr {
    key: "_output_shapes"
    value {
      list {
        shape {
        }
      }
    }
  }
}
node {
  name: "dnn/zero_fraction_1/cond/Identity_2"
  op: "Identity"
  input: "dnn/zero_fraction_1/cond:2"
  attr {
    key: "T"
    value {
      type: DT_VARIANT
    }
  }
  attr {
    key: "_output_shapes"
    value {
      list {
        shape {
        }
      }
    }
  }
}
node {
  name: "dnn/zero_fraction_1/cond/Identity_3"
  op: "Identity"
  input: "dnn/zero_fraction_1/cond:3"
  attr {
    key: "T"
    value {
      type: DT_VARIANT
    }
  }
  attr {
    key: "_output_shapes"
    value {
      list {
        shape {
        }
      }
    }
  }
}
node {
  name: "dnn/zero_fraction_1/cond/Identity_4"
  op: "Identity"
  input: "dnn/zero_fraction_1/cond:4"
  attr {
    key: "T"
    value {
      type: DT_VARIANT
    }
  }
  attr {
    key: "_output_shapes"
    value {
      list {
        shape {
        }
      }
    }
  }
}
node {
  name: "dnn/zero_fraction_1/cond/Identity_5"
  op: "Identity"
  input: "dnn/zero_fraction_1/cond:5"
  attr {
    key: "T"
    value {
      type: DT_VARIANT
    }
  }
  attr {
    key: "_output_shapes"
    value {
      list {
        shape {
        }
      }
    }
  }
}
node {
  name: "dnn/zero_fraction_1/counts_to_fraction/sub"
  op: "Sub"
  input: "dnn/zero_fraction_1/Size"
  input: "dnn/zero_fraction_1/cond/Identity"
  attr {
    key: "T"
    value {
      type: DT_INT64
    }
  }
  attr {
    key: "_output_shapes"
    value {
      list {
        shape {
        }
      }
    }
  }
}
node {
  name: "dnn/zero_fraction_1/counts_to_fraction/Cast"
  op: "Cast"
  input: "dnn/zero_fraction_1/counts_to_fraction/sub"
  attr {
    key: "DstT"
    value {
      type: DT_FLOAT
    }
  }
  attr {
    key: "SrcT"
    value {
      type: DT_INT64
    }
  }
  attr {
    key: "Truncate"
    value {
      b: false
    }
  }
  attr {
    key: "_output_shapes"
    value {
      list {
        shape {
        }
      }
    }
  }
}
node {
  name: "dnn/zero_fraction_1/counts_to_fraction/Cast_1"
  op: "Cast"
  input: "dnn/zero_fraction_1/Size"
  attr {
    key: "DstT"
    value {
      type: DT_FLOAT
    }
  }
  attr {
    key: "SrcT"
    value {
      type: DT_INT64
    }
  }
  attr {
    key: "Truncate"
    value {
      b: false
    }
  }
  attr {
    key: "_output_shapes"
    value {
      list {
        shape {
        }
      }
    }
  }
}
node {
  name: "dnn/zero_fraction_1/counts_to_fraction/truediv"
  op: "RealDiv"
  input: "dnn/zero_fraction_1/counts_to_fraction/Cast"
  input: "dnn/zero_fraction_1/counts_to_fraction/Cast_1"
  attr {
    key: "T"
    value {
      type: DT_FLOAT
    }
  }
  attr {
    key: "_output_shapes"
    value {
      list {
        shape {
        }
      }
    }
  }
}
node {
  name: "dnn/zero_fraction_1/fraction"
  op: "Identity"
  input: "dnn/zero_fraction_1/counts_to_fraction/truediv"
  attr {
    key: "T"
    value {
      type: DT_FLOAT
    }
  }
  attr {
    key: "_output_shapes"
    value {
      list {
        shape {
        }
      }
    }
  }
}
node {
  name: "dnn/hiddenlayer_1/fraction_of_zero_values/tags"
  op: "Const"
  attr {
    key: "_output_shapes"
    value {
      list {
        shape {
        }
      }
    }
  }
  attr {
    key: "dtype"
    value {
      type: DT_STRING
    }
  }
  attr {
    key: "value"
    value {
      tensor {
        dtype: DT_STRING
        tensor_shape {
        }
        string_val: "dnn/hiddenlayer_1/fraction_of_zero_values"
      }
    }
  }
}
node {
  name: "dnn/hiddenlayer_1/fraction_of_zero_values"
  op: "ScalarSummary"
  input: "dnn/hiddenlayer_1/fraction_of_zero_values/tags"
  input: "dnn/zero_fraction_1/fraction"
  attr {
    key: "T"
    value {
      type: DT_FLOAT
    }
  }
  attr {
    key: "_output_shapes"
    value {
      list {
        shape {
        }
      }
    }
  }
}
node {
  name: "dnn/hiddenlayer_1/activation/tag"
  op: "Const"
  attr {
    key: "_output_shapes"
    value {
      list {
        shape {
        }
      }
    }
  }
  attr {
    key: "dtype"
    value {
      type: DT_STRING
    }
  }
  attr {
    key: "value"
    value {
      tensor {
        dtype: DT_STRING
        tensor_shape {
        }
        string_val: "dnn/hiddenlayer_1/activation"
      }
    }
  }
}
node {
  name: "dnn/hiddenlayer_1/activation"
  op: "HistogramSummary"
  input: "dnn/hiddenlayer_1/activation/tag"
  input: "dnn/dropout_1/dropout/Mul_1"
  attr {
    key: "T"
    value {
      type: DT_FLOAT
    }
  }
  attr {
    key: "_output_shapes"
    value {
      list {
        shape {
        }
      }
    }
  }
}
node {
  name: "dnn/logits/kernel/Initializer/random_uniform/shape"
  op: "Const"
  attr {
    key: "_class"
    value {
      list {
        s: "loc:@dnn/logits/kernel"
      }
    }
  }
  attr {
    key: "_output_shapes"
    value {
      list {
        shape {
          dim {
            size: 2
          }
        }
      }
    }
  }
  attr {
    key: "dtype"
    value {
      type: DT_INT32
    }
  }
  attr {
    key: "value"
    value {
      tensor {
        dtype: DT_INT32
        tensor_shape {
          dim {
            size: 2
          }
        }
        tensor_content: " \000\000\000\036\000\000\000"
      }
    }
  }
}
node {
  name: "dnn/logits/kernel/Initializer/random_uniform/min"
  op: "Const"
  attr {
    key: "_class"
    value {
      list {
        s: "loc:@dnn/logits/kernel"
      }
    }
  }
  attr {
    key: "_output_shapes"
    value {
      list {
        shape {
        }
      }
    }
  }
  attr {
    key: "dtype"
    value {
      type: DT_FLOAT
    }
  }
  attr {
    key: "value"
    value {
      tensor {
        dtype: DT_FLOAT
        tensor_shape {
        }
        float_val: -0.3110855221748352
      }
    }
  }
}
node {
  name: "dnn/logits/kernel/Initializer/random_uniform/max"
  op: "Const"
  attr {
    key: "_class"
    value {
      list {
        s: "loc:@dnn/logits/kernel"
      }
    }
  }
  attr {
    key: "_output_shapes"
    value {
      list {
        shape {
        }
      }
    }
  }
  attr {
    key: "dtype"
    value {
      type: DT_FLOAT
    }
  }
  attr {
    key: "value"
    value {
      tensor {
        dtype: DT_FLOAT
        tensor_shape {
        }
        float_val: 0.3110855221748352
      }
    }
  }
}
node {
  name: "dnn/logits/kernel/Initializer/random_uniform/RandomUniform"
  op: "RandomUniform"
  input: "dnn/logits/kernel/Initializer/random_uniform/shape"
  attr {
    key: "T"
    value {
      type: DT_INT32
    }
  }
  attr {
    key: "_class"
    value {
      list {
        s: "loc:@dnn/logits/kernel"
      }
    }
  }
  attr {
    key: "_output_shapes"
    value {
      list {
        shape {
          dim {
            size: 32
          }
          dim {
            size: 30
          }
        }
      }
    }
  }
  attr {
    key: "dtype"
    value {
      type: DT_FLOAT
    }
  }
  attr {
    key: "seed"
    value {
      i: 0
    }
  }
  attr {
    key: "seed2"
    value {
      i: 0
    }
  }
}
node {
  name: "dnn/logits/kernel/Initializer/random_uniform/sub"
  op: "Sub"
  input: "dnn/logits/kernel/Initializer/random_uniform/max"
  input: "dnn/logits/kernel/Initializer/random_uniform/min"
  attr {
    key: "T"
    value {
      type: DT_FLOAT
    }
  }
  attr {
    key: "_class"
    value {
      list {
        s: "loc:@dnn/logits/kernel"
      }
    }
  }
  attr {
    key: "_output_shapes"
    value {
      list {
        shape {
        }
      }
    }
  }
}
node {
  name: "dnn/logits/kernel/Initializer/random_uniform/mul"
  op: "Mul"
  input: "dnn/logits/kernel/Initializer/random_uniform/RandomUniform"
  input: "dnn/logits/kernel/Initializer/random_uniform/sub"
  attr {
    key: "T"
    value {
      type: DT_FLOAT
    }
  }
  attr {
    key: "_class"
    value {
      list {
        s: "loc:@dnn/logits/kernel"
      }
    }
  }
  attr {
    key: "_output_shapes"
    value {
      list {
        shape {
          dim {
            size: 32
          }
          dim {
            size: 30
          }
        }
      }
    }
  }
}
node {
  name: "dnn/logits/kernel/Initializer/random_uniform"
  op: "Add"
  input: "dnn/logits/kernel/Initializer/random_uniform/mul"
  input: "dnn/logits/kernel/Initializer/random_uniform/min"
  attr {
    key: "T"
    value {
      type: DT_FLOAT
    }
  }
  attr {
    key: "_class"
    value {
      list {
        s: "loc:@dnn/logits/kernel"
      }
    }
  }
  attr {
    key: "_output_shapes"
    value {
      list {
        shape {
          dim {
            size: 32
          }
          dim {
            size: 30
          }
        }
      }
    }
  }
}
node {
  name: "dnn/logits/kernel"
  op: "VarHandleOp"
  attr {
    key: "_class"
    value {
      list {
        s: "loc:@dnn/logits/kernel"
      }
    }
  }
  attr {
    key: "_output_shapes"
    value {
      list {
        shape {
        }
      }
    }
  }
  attr {
    key: "container"
    value {
      s: ""
    }
  }
  attr {
    key: "dtype"
    value {
      type: DT_FLOAT
    }
  }
  attr {
    key: "shape"
    value {
      shape {
        dim {
          size: 32
        }
        dim {
          size: 30
        }
      }
    }
  }
  attr {
    key: "shared_name"
    value {
      s: "dnn/logits/kernel"
    }
  }
}
node {
  name: "dnn/logits/kernel/IsInitialized/VarIsInitializedOp"
  op: "VarIsInitializedOp"
  input: "dnn/logits/kernel"
  attr {
    key: "_output_shapes"
    value {
      list {
        shape {
        }
      }
    }
  }
}
node {
  name: "dnn/logits/kernel/Assign"
  op: "AssignVariableOp"
  input: "dnn/logits/kernel"
  input: "dnn/logits/kernel/Initializer/random_uniform"
  attr {
    key: "dtype"
    value {
      type: DT_FLOAT
    }
  }
}
node {
  name: "dnn/logits/kernel/Read/ReadVariableOp"
  op: "ReadVariableOp"
  input: "dnn/logits/kernel"
  attr {
    key: "_output_shapes"
    value {
      list {
        shape {
          dim {
            size: 32
          }
          dim {
            size: 30
          }
        }
      }
    }
  }
  attr {
    key: "dtype"
    value {
      type: DT_FLOAT
    }
  }
}
node {
  name: "dnn/logits/bias/Initializer/zeros"
  op: "Const"
  attr {
    key: "_class"
    value {
      list {
        s: "loc:@dnn/logits/bias"
      }
    }
  }
  attr {
    key: "_output_shapes"
    value {
      list {
        shape {
          dim {
            size: 30
          }
        }
      }
    }
  }
  attr {
    key: "dtype"
    value {
      type: DT_FLOAT
    }
  }
  attr {
    key: "value"
    value {
      tensor {
        dtype: DT_FLOAT
        tensor_shape {
          dim {
            size: 30
          }
        }
        float_val: 0.0
      }
    }
  }
}
node {
  name: "dnn/logits/bias"
  op: "VarHandleOp"
  attr {
    key: "_class"
    value {
      list {
        s: "loc:@dnn/logits/bias"
      }
    }
  }
  attr {
    key: "_output_shapes"
    value {
      list {
        shape {
        }
      }
    }
  }
  attr {
    key: "container"
    value {
      s: ""
    }
  }
  attr {
    key: "dtype"
    value {
      type: DT_FLOAT
    }
  }
  attr {
    key: "shape"
    value {
      shape {
        dim {
          size: 30
        }
      }
    }
  }
  attr {
    key: "shared_name"
    value {
      s: "dnn/logits/bias"
    }
  }
}
node {
  name: "dnn/logits/bias/IsInitialized/VarIsInitializedOp"
  op: "VarIsInitializedOp"
  input: "dnn/logits/bias"
  attr {
    key: "_output_shapes"
    value {
      list {
        shape {
        }
      }
    }
  }
}
node {
  name: "dnn/logits/bias/Assign"
  op: "AssignVariableOp"
  input: "dnn/logits/bias"
  input: "dnn/logits/bias/Initializer/zeros"
  attr {
    key: "dtype"
    value {
      type: DT_FLOAT
    }
  }
}
node {
  name: "dnn/logits/bias/Read/ReadVariableOp"
  op: "ReadVariableOp"
  input: "dnn/logits/bias"
  attr {
    key: "_output_shapes"
    value {
      list {
        shape {
          dim {
            size: 30
          }
        }
      }
    }
  }
  attr {
    key: "dtype"
    value {
      type: DT_FLOAT
    }
  }
}
node {
  name: "dnn/logits/MatMul/ReadVariableOp"
  op: "ReadVariableOp"
  input: "dnn/logits/kernel"
  attr {
    key: "_output_shapes"
    value {
      list {
        shape {
          dim {
            size: 32
          }
          dim {
            size: 30
          }
        }
      }
    }
  }
  attr {
    key: "dtype"
    value {
      type: DT_FLOAT
    }
  }
}
node {
  name: "dnn/logits/MatMul"
  op: "MatMul"
  input: "dnn/dropout_1/dropout/Mul_1"
  input: "dnn/logits/MatMul/ReadVariableOp"
  attr {
    key: "T"
    value {
      type: DT_FLOAT
    }
  }
  attr {
    key: "_output_shapes"
    value {
      list {
        shape {
          dim {
            size: -1
          }
          dim {
            size: 30
          }
        }
      }
    }
  }
  attr {
    key: "transpose_a"
    value {
      b: false
    }
  }
  attr {
    key: "transpose_b"
    value {
      b: false
    }
  }
}
node {
  name: "dnn/logits/BiasAdd/ReadVariableOp"
  op: "ReadVariableOp"
  input: "dnn/logits/bias"
  attr {
    key: "_output_shapes"
    value {
      list {
        shape {
          dim {
            size: 30
          }
        }
      }
    }
  }
  attr {
    key: "dtype"
    value {
      type: DT_FLOAT
    }
  }
}
node {
  name: "dnn/logits/BiasAdd"
  op: "BiasAdd"
  input: "dnn/logits/MatMul"
  input: "dnn/logits/BiasAdd/ReadVariableOp"
  attr {
    key: "T"
    value {
      type: DT_FLOAT
    }
  }
  attr {
    key: "_output_shapes"
    value {
      list {
        shape {
          dim {
            size: -1
          }
          dim {
            size: 30
          }
        }
      }
    }
  }
  attr {
    key: "data_format"
    value {
      s: "NHWC"
    }
  }
}
node {
  name: "dnn/zero_fraction_2/Size"
  op: "Size"
  input: "dnn/logits/BiasAdd"
  attr {
    key: "T"
    value {
      type: DT_FLOAT
    }
  }
  attr {
    key: "_output_shapes"
    value {
      list {
        shape {
        }
      }
    }
  }
  attr {
    key: "out_type"
    value {
      type: DT_INT64
    }
  }
}
node {
  name: "dnn/zero_fraction_2/LessEqual/y"
  op: "Const"
  attr {
    key: "_output_shapes"
    value {
      list {
        shape {
        }
      }
    }
  }
  attr {
    key: "dtype"
    value {
      type: DT_INT64
    }
  }
  attr {
    key: "value"
    value {
      tensor {
        dtype: DT_INT64
        tensor_shape {
        }
        int64_val: 2147483647
      }
    }
  }
}
node {
  name: "dnn/zero_fraction_2/LessEqual"
  op: "LessEqual"
  input: "dnn/zero_fraction_2/Size"
  input: "dnn/zero_fraction_2/LessEqual/y"
  attr {
    key: "T"
    value {
      type: DT_INT64
    }
  }
  attr {
    key: "_output_shapes"
    value {
      list {
        shape {
        }
      }
    }
  }
}
node {
  name: "dnn/zero_fraction_2/cond"
  op: "StatelessIf"
  input: "dnn/zero_fraction_2/LessEqual"
  input: "dnn/logits/BiasAdd"
  attr {
    key: "Tcond"
    value {
      type: DT_BOOL
    }
  }
  attr {
    key: "Tin"
    value {
      list {
        type: DT_FLOAT
      }
    }
  }
  attr {
    key: "Tout"
    value {
      list {
        type: DT_INT64
        type: DT_VARIANT
        type: DT_VARIANT
        type: DT_VARIANT
        type: DT_VARIANT
        type: DT_VARIANT
      }
    }
  }
  attr {
    key: "_lower_using_switch_merge"
    value {
      b: true
    }
  }
  attr {
    key: "_output_shapes"
    value {
      list {
        shape {
        }
        shape {
        }
        shape {
        }
        shape {
        }
        shape {
        }
        shape {
        }
      }
    }
  }
  attr {
    key: "_read_only_resource_inputs"
    value {
      list {
      }
    }
  }
  attr {
    key: "else_branch"
    value {
      func {
        name: "dnn_zero_fraction_2_cond_false_425"
      }
    }
  }
  attr {
    key: "output_shapes"
    value {
      list {
        shape {
        }
        shape {
        }
        shape {
        }
        shape {
        }
        shape {
        }
        shape {
        }
      }
    }
  }
  attr {
    key: "then_branch"
    value {
      func {
        name: "dnn_zero_fraction_2_cond_true_424"
      }
    }
  }
}
node {
  name: "dnn/zero_fraction_2/cond/Identity"
  op: "Identity"
  input: "dnn/zero_fraction_2/cond"
  attr {
    key: "T"
    value {
      type: DT_INT64
    }
  }
  attr {
    key: "_output_shapes"
    value {
      list {
        shape {
        }
      }
    }
  }
}
node {
  name: "dnn/zero_fraction_2/cond/Identity_1"
  op: "Identity"
  input: "dnn/zero_fraction_2/cond:1"
  attr {
    key: "T"
    value {
      type: DT_VARIANT
    }
  }
  attr {
    key: "_output_shapes"
    value {
      list {
        shape {
        }
      }
    }
  }
}
node {
  name: "dnn/zero_fraction_2/cond/Identity_2"
  op: "Identity"
  input: "dnn/zero_fraction_2/cond:2"
  attr {
    key: "T"
    value {
      type: DT_VARIANT
    }
  }
  attr {
    key: "_output_shapes"
    value {
      list {
        shape {
        }
      }
    }
  }
}
node {
  name: "dnn/zero_fraction_2/cond/Identity_3"
  op: "Identity"
  input: "dnn/zero_fraction_2/cond:3"
  attr {
    key: "T"
    value {
      type: DT_VARIANT
    }
  }
  attr {
    key: "_output_shapes"
    value {
      list {
        shape {
        }
      }
    }
  }
}
node {
  name: "dnn/zero_fraction_2/cond/Identity_4"
  op: "Identity"
  input: "dnn/zero_fraction_2/cond:4"
  attr {
    key: "T"
    value {
      type: DT_VARIANT
    }
  }
  attr {
    key: "_output_shapes"
    value {
      list {
        shape {
        }
      }
    }
  }
}
node {
  name: "dnn/zero_fraction_2/cond/Identity_5"
  op: "Identity"
  input: "dnn/zero_fraction_2/cond:5"
  attr {
    key: "T"
    value {
      type: DT_VARIANT
    }
  }
  attr {
    key: "_output_shapes"
    value {
      list {
        shape {
        }
      }
    }
  }
}
node {
  name: "dnn/zero_fraction_2/counts_to_fraction/sub"
  op: "Sub"
  input: "dnn/zero_fraction_2/Size"
  input: "dnn/zero_fraction_2/cond/Identity"
  attr {
    key: "T"
    value {
      type: DT_INT64
    }
  }
  attr {
    key: "_output_shapes"
    value {
      list {
        shape {
        }
      }
    }
  }
}
node {
  name: "dnn/zero_fraction_2/counts_to_fraction/Cast"
  op: "Cast"
  input: "dnn/zero_fraction_2/counts_to_fraction/sub"
  attr {
    key: "DstT"
    value {
      type: DT_FLOAT
    }
  }
  attr {
    key: "SrcT"
    value {
      type: DT_INT64
    }
  }
  attr {
    key: "Truncate"
    value {
      b: false
    }
  }
  attr {
    key: "_output_shapes"
    value {
      list {
        shape {
        }
      }
    }
  }
}
node {
  name: "dnn/zero_fraction_2/counts_to_fraction/Cast_1"
  op: "Cast"
  input: "dnn/zero_fraction_2/Size"
  attr {
    key: "DstT"
    value {
      type: DT_FLOAT
    }
  }
  attr {
    key: "SrcT"
    value {
      type: DT_INT64
    }
  }
  attr {
    key: "Truncate"
    value {
      b: false
    }
  }
  attr {
    key: "_output_shapes"
    value {
      list {
        shape {
        }
      }
    }
  }
}
node {
  name: "dnn/zero_fraction_2/counts_to_fraction/truediv"
  op: "RealDiv"
  input: "dnn/zero_fraction_2/counts_to_fraction/Cast"
  input: "dnn/zero_fraction_2/counts_to_fraction/Cast_1"
  attr {
    key: "T"
    value {
      type: DT_FLOAT
    }
  }
  attr {
    key: "_output_shapes"
    value {
      list {
        shape {
        }
      }
    }
  }
}
node {
  name: "dnn/zero_fraction_2/fraction"
  op: "Identity"
  input: "dnn/zero_fraction_2/counts_to_fraction/truediv"
  attr {
    key: "T"
    value {
      type: DT_FLOAT
    }
  }
  attr {
    key: "_output_shapes"
    value {
      list {
        shape {
        }
      }
    }
  }
}
node {
  name: "dnn/logits/fraction_of_zero_values/tags"
  op: "Const"
  attr {
    key: "_output_shapes"
    value {
      list {
        shape {
        }
      }
    }
  }
  attr {
    key: "dtype"
    value {
      type: DT_STRING
    }
  }
  attr {
    key: "value"
    value {
      tensor {
        dtype: DT_STRING
        tensor_shape {
        }
        string_val: "dnn/logits/fraction_of_zero_values"
      }
    }
  }
}
node {
  name: "dnn/logits/fraction_of_zero_values"
  op: "ScalarSummary"
  input: "dnn/logits/fraction_of_zero_values/tags"
  input: "dnn/zero_fraction_2/fraction"
  attr {
    key: "T"
    value {
      type: DT_FLOAT
    }
  }
  attr {
    key: "_output_shapes"
    value {
      list {
        shape {
        }
      }
    }
  }
}
node {
  name: "dnn/logits/activation/tag"
  op: "Const"
  attr {
    key: "_output_shapes"
    value {
      list {
        shape {
        }
      }
    }
  }
  attr {
    key: "dtype"
    value {
      type: DT_STRING
    }
  }
  attr {
    key: "value"
    value {
      tensor {
        dtype: DT_STRING
        tensor_shape {
        }
        string_val: "dnn/logits/activation"
      }
    }
  }
}
node {
  name: "dnn/logits/activation"
  op: "HistogramSummary"
  input: "dnn/logits/activation/tag"
  input: "dnn/logits/BiasAdd"
  attr {
    key: "T"
    value {
      type: DT_FLOAT
    }
  }
  attr {
    key: "_output_shapes"
    value {
      list {
        shape {
        }
      }
    }
  }
}
node {
  name: "linear/linear_model/content/weights/Initializer/zeros/shape_as_tensor"
  op: "Const"
  attr {
    key: "_class"
    value {
      list {
        s: "loc:@linear/linear_model/content/weights"
      }
    }
  }
  attr {
    key: "_output_shapes"
    value {
      list {
        shape {
          dim {
            size: 2
          }
        }
      }
    }
  }
  attr {
    key: "dtype"
    value {
      type: DT_INT32
    }
  }
  attr {
    key: "value"
    value {
      tensor {
        dtype: DT_INT32
        tensor_shape {
          dim {
            size: 2
          }
        }
        tensor_content: " N\000\000\036\000\000\000"
      }
    }
  }
}
node {
  name: "linear/linear_model/content/weights/Initializer/zeros/Const"
  op: "Const"
  attr {
    key: "_class"
    value {
      list {
        s: "loc:@linear/linear_model/content/weights"
      }
    }
  }
  attr {
    key: "_output_shapes"
    value {
      list {
        shape {
        }
      }
    }
  }
  attr {
    key: "dtype"
    value {
      type: DT_FLOAT
    }
  }
  attr {
    key: "value"
    value {
      tensor {
        dtype: DT_FLOAT
        tensor_shape {
        }
        float_val: 0.0
      }
    }
  }
}
node {
  name: "linear/linear_model/content/weights/Initializer/zeros"
  op: "Fill"
  input: "linear/linear_model/content/weights/Initializer/zeros/shape_as_tensor"
  input: "linear/linear_model/content/weights/Initializer/zeros/Const"
  attr {
    key: "T"
    value {
      type: DT_FLOAT
    }
  }
  attr {
    key: "_class"
    value {
      list {
        s: "loc:@linear/linear_model/content/weights"
      }
    }
  }
  attr {
    key: "_output_shapes"
    value {
      list {
        shape {
          dim {
            size: 20000
          }
          dim {
            size: 30
          }
        }
      }
    }
  }
  attr {
    key: "index_type"
    value {
      type: DT_INT32
    }
  }
}
node {
  name: "linear/linear_model/content/weights"
  op: "VarHandleOp"
  attr {
    key: "_class"
    value {
      list {
        s: "loc:@linear/linear_model/content/weights"
      }
    }
  }
  attr {
    key: "_output_shapes"
    value {
      list {
        shape {
        }
      }
    }
  }
  attr {
    key: "container"
    value {
      s: ""
    }
  }
  attr {
    key: "dtype"
    value {
      type: DT_FLOAT
    }
  }
  attr {
    key: "shape"
    value {
      shape {
        dim {
          size: 20000
        }
        dim {
          size: 30
        }
      }
    }
  }
  attr {
    key: "shared_name"
    value {
      s: "linear/linear_model/content/weights"
    }
  }
}
node {
  name: "linear/linear_model/content/weights/IsInitialized/VarIsInitializedOp"
  op: "VarIsInitializedOp"
  input: "linear/linear_model/content/weights"
  attr {
    key: "_output_shapes"
    value {
      list {
        shape {
        }
      }
    }
  }
}
node {
  name: "linear/linear_model/content/weights/Assign"
  op: "AssignVariableOp"
  input: "linear/linear_model/content/weights"
  input: "linear/linear_model/content/weights/Initializer/zeros"
  attr {
    key: "dtype"
    value {
      type: DT_FLOAT
    }
  }
}
node {
  name: "linear/linear_model/content/weights/Read/ReadVariableOp"
  op: "ReadVariableOp"
  input: "linear/linear_model/content/weights"
  attr {
    key: "_output_shapes"
    value {
      list {
        shape {
          dim {
            size: 20000
          }
          dim {
            size: 30
          }
        }
      }
    }
  }
  attr {
    key: "dtype"
    value {
      type: DT_FLOAT
    }
  }
}
node {
  name: "linear/linear_model/bias_weights/Initializer/zeros"
  op: "Const"
  attr {
    key: "_class"
    value {
      list {
        s: "loc:@linear/linear_model/bias_weights"
      }
    }
  }
  attr {
    key: "_output_shapes"
    value {
      list {
        shape {
          dim {
            size: 30
          }
        }
      }
    }
  }
  attr {
    key: "dtype"
    value {
      type: DT_FLOAT
    }
  }
  attr {
    key: "value"
    value {
      tensor {
        dtype: DT_FLOAT
        tensor_shape {
          dim {
            size: 30
          }
        }
        float_val: 0.0
      }
    }
  }
}
node {
  name: "linear/linear_model/bias_weights"
  op: "VarHandleOp"
  attr {
    key: "_class"
    value {
      list {
        s: "loc:@linear/linear_model/bias_weights"
      }
    }
  }
  attr {
    key: "_output_shapes"
    value {
      list {
        shape {
        }
      }
    }
  }
  attr {
    key: "container"
    value {
      s: ""
    }
  }
  attr {
    key: "dtype"
    value {
      type: DT_FLOAT
    }
  }
  attr {
    key: "shape"
    value {
      shape {
        dim {
          size: 30
        }
      }
    }
  }
  attr {
    key: "shared_name"
    value {
      s: "linear/linear_model/bias_weights"
    }
  }
}
node {
  name: "linear/linear_model/bias_weights/IsInitialized/VarIsInitializedOp"
  op: "VarIsInitializedOp"
  input: "linear/linear_model/bias_weights"
  attr {
    key: "_output_shapes"
    value {
      list {
        shape {
        }
      }
    }
  }
}
node {
  name: "linear/linear_model/bias_weights/Assign"
  op: "AssignVariableOp"
  input: "linear/linear_model/bias_weights"
  input: "linear/linear_model/bias_weights/Initializer/zeros"
  attr {
    key: "dtype"
    value {
      type: DT_FLOAT
    }
  }
}
node {
  name: "linear/linear_model/bias_weights/Read/ReadVariableOp"
  op: "ReadVariableOp"
  input: "linear/linear_model/bias_weights"
  attr {
    key: "_output_shapes"
    value {
      list {
        shape {
          dim {
            size: 30
          }
        }
      }
    }
  }
  attr {
    key: "dtype"
    value {
      type: DT_FLOAT
    }
  }
}
node {
  name: "linear/linear_model/linear/linear_model/linear/linear_model/content/to_sparse_input/ignore_value/x"
  op: "Const"
  attr {
    key: "_output_shapes"
    value {
      list {
        shape {
        }
      }
    }
  }
  attr {
    key: "dtype"
    value {
      type: DT_STRING
    }
  }
  attr {
    key: "value"
    value {
      tensor {
        dtype: DT_STRING
        tensor_shape {
        }
        string_val: ""
      }
    }
  }
}
node {
  name: "linear/linear_model/linear/linear_model/linear/linear_model/content/to_sparse_input/NotEqual"
  op: "NotEqual"
  input: "IteratorGetNext"
  input: "linear/linear_model/linear/linear_model/linear/linear_model/content/to_sparse_input/ignore_value/x"
  attr {
    key: "T"
    value {
      type: DT_STRING
    }
  }
  attr {
    key: "_output_shapes"
    value {
      list {
        shape {
          dim {
            size: -1
          }
          dim {
            size: -1
          }
        }
      }
    }
  }
  attr {
    key: "incompatible_shape_error"
    value {
      b: true
    }
  }
}
node {
  name: "linear/linear_model/linear/linear_model/linear/linear_model/content/to_sparse_input/indices"
  op: "Where"
  input: "linear/linear_model/linear/linear_model/linear/linear_model/content/to_sparse_input/NotEqual"
  attr {
    key: "T"
    value {
      type: DT_BOOL
    }
  }
  attr {
    key: "_output_shapes"
    value {
      list {
        shape {
          dim {
            size: -1
          }
          dim {
            size: 2
          }
        }
      }
    }
  }
}
node {
  name: "linear/linear_model/linear/linear_model/linear/linear_model/content/to_sparse_input/values"
  op: "GatherNd"
  input: "IteratorGetNext"
  input: "linear/linear_model/linear/linear_model/linear/linear_model/content/to_sparse_input/indices"
  attr {
    key: "Tindices"
    value {
      type: DT_INT64
    }
  }
  attr {
    key: "Tparams"
    value {
      type: DT_STRING
    }
  }
  attr {
    key: "_output_shapes"
    value {
      list {
        shape {
          dim {
            size: -1
          }
        }
      }
    }
  }
}
node {
  name: "linear/linear_model/linear/linear_model/linear/linear_model/content/to_sparse_input/dense_shape"
  op: "Shape"
  input: "IteratorGetNext"
  attr {
    key: "T"
    value {
      type: DT_STRING
    }
  }
  attr {
    key: "_output_shapes"
    value {
      list {
        shape {
          dim {
            size: 2
          }
        }
      }
    }
  }
  attr {
    key: "out_type"
    value {
      type: DT_INT64
    }
  }
}
node {
  name: "linear/linear_model/linear/linear_model/linear/linear_model/content/lookup"
  op: "StringToHashBucketFast"
  input: "linear/linear_model/linear/linear_model/linear/linear_model/content/to_sparse_input/values"
  attr {
    key: "_output_shapes"
    value {
      list {
        shape {
          dim {
            size: -1
          }
        }
      }
    }
  }
  attr {
    key: "num_buckets"
    value {
      i: 20000
    }
  }
}
node {
  name: "linear/linear_model/linear/linear_model/linear/linear_model/content/Shape/Cast"
  op: "Cast"
  input: "linear/linear_model/linear/linear_model/linear/linear_model/content/to_sparse_input/dense_shape"
  attr {
    key: "DstT"
    value {
      type: DT_INT32
    }
  }
  attr {
    key: "SrcT"
    value {
      type: DT_INT64
    }
  }
  attr {
    key: "Truncate"
    value {
      b: false
    }
  }
  attr {
    key: "_output_shapes"
    value {
      list {
        shape {
          dim {
            size: 2
          }
        }
      }
    }
  }
}
node {
  name: "linear/linear_model/linear/linear_model/linear/linear_model/content/strided_slice/stack"
  op: "Const"
  attr {
    key: "_output_shapes"
    value {
      list {
        shape {
          dim {
            size: 1
          }
        }
      }
    }
  }
  attr {
    key: "dtype"
    value {
      type: DT_INT32
    }
  }
  attr {
    key: "value"
    value {
      tensor {
        dtype: DT_INT32
        tensor_shape {
          dim {
            size: 1
          }
        }
        int_val: 0
      }
    }
  }
}
node {
  name: "linear/linear_model/linear/linear_model/linear/linear_model/content/strided_slice/stack_1"
  op: "Const"
  attr {
    key: "_output_shapes"
    value {
      list {
        shape {
          dim {
            size: 1
          }
        }
      }
    }
  }
  attr {
    key: "dtype"
    value {
      type: DT_INT32
    }
  }
  attr {
    key: "value"
    value {
      tensor {
        dtype: DT_INT32
        tensor_shape {
          dim {
            size: 1
          }
        }
        int_val: 1
      }
    }
  }
}
node {
  name: "linear/linear_model/linear/linear_model/linear/linear_model/content/strided_slice/stack_2"
  op: "Const"
  attr {
    key: "_output_shapes"
    value {
      list {
        shape {
          dim {
            size: 1
          }
        }
      }
    }
  }
  attr {
    key: "dtype"
    value {
      type: DT_INT32
    }
  }
  attr {
    key: "value"
    value {
      tensor {
        dtype: DT_INT32
        tensor_shape {
          dim {
            size: 1
          }
        }
        int_val: 1
      }
    }
  }
}
node {
  name: "linear/linear_model/linear/linear_model/linear/linear_model/content/strided_slice"
  op: "StridedSlice"
  input: "linear/linear_model/linear/linear_model/linear/linear_model/content/Shape/Cast"
  input: "linear/linear_model/linear/linear_model/linear/linear_model/content/strided_slice/stack"
  input: "linear/linear_model/linear/linear_model/linear/linear_model/content/strided_slice/stack_1"
  input: "linear/linear_model/linear/linear_model/linear/linear_model/content/strided_slice/stack_2"
  attr {
    key: "Index"
    value {
      type: DT_INT32
    }
  }
  attr {
    key: "T"
    value {
      type: DT_INT32
    }
  }
  attr {
    key: "_output_shapes"
    value {
      list {
        shape {
        }
      }
    }
  }
  attr {
    key: "begin_mask"
    value {
      i: 0
    }
  }
  attr {
    key: "ellipsis_mask"
    value {
      i: 0
    }
  }
  attr {
    key: "end_mask"
    value {
      i: 0
    }
  }
  attr {
    key: "new_axis_mask"
    value {
      i: 0
    }
  }
  attr {
    key: "shrink_axis_mask"
    value {
      i: 1
    }
  }
}
node {
  name: "linear/linear_model/linear/linear_model/linear/linear_model/content/Cast/x/1"
  op: "Const"
  attr {
    key: "_output_shapes"
    value {
      list {
        shape {
        }
      }
    }
  }
  attr {
    key: "dtype"
    value {
      type: DT_INT32
    }
  }
  attr {
    key: "value"
    value {
      tensor {
        dtype: DT_INT32
        tensor_shape {
        }
        int_val: -1
      }
    }
  }
}
node {
  name: "linear/linear_model/linear/linear_model/linear/linear_model/content/Cast/x"
  op: "Pack"
  input: "linear/linear_model/linear/linear_model/linear/linear_model/content/strided_slice"
  input: "linear/linear_model/linear/linear_model/linear/linear_model/content/Cast/x/1"
  attr {
    key: "N"
    value {
      i: 2
    }
  }
  attr {
    key: "T"
    value {
      type: DT_INT32
    }
  }
  attr {
    key: "_output_shapes"
    value {
      list {
        shape {
          dim {
            size: 2
          }
        }
      }
    }
  }
  attr {
    key: "axis"
    value {
      i: 0
    }
  }
}
node {
  name: "linear/linear_model/linear/linear_model/linear/linear_model/content/Cast"
  op: "Cast"
  input: "linear/linear_model/linear/linear_model/linear/linear_model/content/Cast/x"
  attr {
    key: "DstT"
    value {
      type: DT_INT64
    }
  }
  attr {
    key: "SrcT"
    value {
      type: DT_INT32
    }
  }
  attr {
    key: "Truncate"
    value {
      b: false
    }
  }
  attr {
    key: "_output_shapes"
    value {
      list {
        shape {
          dim {
            size: 2
          }
        }
      }
    }
  }
}
node {
  name: "linear/linear_model/linear/linear_model/linear/linear_model/content/SparseReshape"
  op: "SparseReshape"
  input: "linear/linear_model/linear/linear_model/linear/linear_model/content/to_sparse_input/indices"
  input: "linear/linear_model/linear/linear_model/linear/linear_model/content/to_sparse_input/dense_shape"
  input: "linear/linear_model/linear/linear_model/linear/linear_model/content/Cast"
  attr {
    key: "_output_shapes"
    value {
      list {
        shape {
          dim {
            size: -1
          }
          dim {
            size: 2
          }
        }
        shape {
          dim {
…
          }
        }
      }
      experimental_debug_info {
        original_node_names: "count_nonzero/Cast"
      }
    }
    node_def {
      name: "count_nonzero/Const"
      op: "Const"
      attr {
        key: "_output_shapes"
        value {
          list {
            shape {
              dim {
                size: 2
              }
            }
          }
        }
      }
      attr {
        key: "dtype"
        value {
          type: DT_INT32
        }
      }
      attr {
        key: "value"
        value {
          tensor {
            dtype: DT_INT32
            tensor_shape {
              dim {
                size: 2
              }
            }
            tensor_content: "\000\000\000\000\001\000\000\000"
          }
        }
      }
      experimental_debug_info {
        original_node_names: "count_nonzero/Const"
      }
    }
    node_def {
      name: "count_nonzero/nonzero_count"
      op: "Sum"
      input: "count_nonzero/Cast:y:0"
      input: "count_nonzero/Const:output:0"
      attr {
        key: "T"
        value {
          type: DT_INT32
        }
      }
      attr {
        key: "Tidx"
        value {
          type: DT_INT32
        }
      }
      attr {
        key: "_output_shapes"
        value {
          list {
            shape {
            }
          }
        }
      }
      attr {
        key: "keep_dims"
        value {
          b: false
        }
      }
      experimental_debug_info {
        original_node_names: "count_nonzero/nonzero_count"
      }
    }
    node_def {
      name: "Cast"
      op: "Cast"
      input: "count_nonzero/nonzero_count:output:0"
      attr {
        key: "DstT"
        value {
          type: DT_INT64
        }
      }
      attr {
        key: "SrcT"
        value {
          type: DT_INT32
        }
      }
      attr {
        key: "Truncate"
        value {
          b: false
        }
      }
      attr {
        key: "_output_shapes"
        value {
          list {
            shape {
            }
          }
        }
      }
      experimental_debug_info {
        original_node_names: "Cast"
      }
    }
    node_def {
      name: "OptionalFromValue"
      op: "OptionalFromValue"
      input: "count_nonzero/zeros:output:0"
      attr {
        key: "Toutput_types"
        value {
          list {
            type: DT_FLOAT
          }
        }
      }
      attr {
        key: "_output_shapes"
        value {
          list {
            shape {
            }
          }
        }
      }
      experimental_debug_info {
        original_node_names: "OptionalFromValue"
      }
    }
    node_def {
      name: "OptionalFromValue_1"
      op: "OptionalFromValue"
      input: "count_nonzero/NotEqual:z:0"
      attr {
        key: "Toutput_types"
        value {
          list {
            type: DT_BOOL
          }
        }
      }
      attr {
        key: "_output_shapes"
        value {
          list {
            shape {
            }
          }
        }
      }
      experimental_debug_info {
        original_node_names: "OptionalFromValue_1"
      }
    }
    node_def {
      name: "OptionalFromValue_2"
      op: "OptionalFromValue"
      input: "count_nonzero/Cast:y:0"
      attr {
        key: "Toutput_types"
        value {
          list {
            type: DT_INT32
          }
        }
      }
      attr {
        key: "_output_shapes"
        value {
          list {
            shape {
            }
          }
        }
      }
      experimental_debug_info {
        original_node_names: "OptionalFromValue_2"
      }
    }
    node_def {
      name: "OptionalFromValue_3"
      op: "OptionalFromValue"
      input: "count_nonzero/Const:output:0"
      attr {
        key: "Toutput_types"
        value {
          list {
            type: DT_INT32
          }
        }
      }
      attr {
        key: "_output_shapes"
        value {
          list {
            shape {
            }
          }
        }
      }
      experimental_debug_info {
        original_node_names: "OptionalFromValue_3"
      }
    }
    node_def {
      name: "OptionalFromValue_4"
      op: "OptionalFromValue"
      input: "count_nonzero/nonzero_count:output:0"
      attr {
        key: "Toutput_types"
        value {
          list {
            type: DT_INT32
          }
        }
      }
      attr {
        key: "_output_shapes"
        value {
          list {
            shape {
            }
          }
        }
      }
      experimental_debug_info {
        original_node_names: "OptionalFromValue_4"
      }
    }
    ret {
      key: "cast"
      value: "Cast:y:0"
    }
    ret {
      key: "optionalfromvalue"
      value: "OptionalFromValue:optional:0"
    }
    ret {
      key: "optionalfromvalue_1"
      value: "OptionalFromValue_1:optional:0"
    }
    ret {
      key: "optionalfromvalue_2"
      value: "OptionalFromValue_2:optional:0"
    }
    ret {
      key: "optionalfromvalue_3"
      value: "OptionalFromValue_3:optional:0"
    }
    ret {
      key: "optionalfromvalue_4"
      value: "OptionalFromValue_4:optional:0"
    }
    attr {
      key: "_input_shapes"
      value {
        list {
          shape {
            dim {
              size: -1
            }
            dim {
              size: 512
            }
          }
        }
      }
    }
    arg_attr {
      value {
        attr {
          key: "_output_shapes"
          value {
            list {
              shape {
                dim {
                  size: -1
                }
                dim {
                  size: 512
                }
              }
            }
          }
        }
      }
    }
  }
  function {
    signature {
      name: "global_step_cond_true_11"
      input_arg {
        name: "read_readvariableop_global_step"
        type: DT_RESOURCE
      }
      input_arg {
        name: "placeholder"
        type: DT_INT64
      }
      output_arg {
        name: "identity"
        type: DT_INT64
      }
      is_stateful: true
    }
    node_def {
      name: "Read/ReadVariableOp"
      op: "ReadVariableOp"
      input: "read_readvariableop_global_step"
      attr {
        key: "_output_shapes"
        value {
          list {
            shape {
            }
          }
        }
      }
      attr {
        key: "dtype"
        value {
          type: DT_INT64
        }
      }
      experimental_debug_info {
        original_node_names: "Read/ReadVariableOp"
      }
    }
    node_def {
      name: "Identity"
      op: "Identity"
      input: "Read/ReadVariableOp:value:0"
      attr {
        key: "T"
        value {
          type: DT_INT64
        }
      }
      attr {
        key: "_output_shapes"
        value {
          list {
            shape {
            }
          }
        }
      }
      experimental_debug_info {
        original_node_names: "Identity"
      }
    }
    ret {
      key: "identity"
      value: "Identity:output:0"
    }
    attr {
      key: "_input_shapes"
      value {
        list {
          shape {
            unknown_rank: true
          }
          shape {
          }
        }
      }
    }
    arg_attr {
      value {
        attr {
          key: "_output_shapes"
          value {
            list {
              shape {
              }
            }
          }
        }
      }
    }
    arg_attr {
      key: 1
      value {
        attr {
          key: "_output_shapes"
          value {
            list {
              shape {
              }
            }
          }
        }
      }
    }
  }
  function {
    signature {
      name: "zero_fraction_1_cond_false_620"
      input_arg {
        name: "count_nonzero_notequal_linear_linear_model_linear_linear_model_linear_linear_model_weighted_sum"
        type: DT_FLOAT
      }
      output_arg {
        name: "count_nonzero_nonzero_count"
        type: DT_INT64
      }
    }
    node_def {
      name: "count_nonzero/zeros"
      op: "Const"
      attr {
        key: "_output_shapes"
        value {
          list {
            shape {
            }
          }
        }
      }
      attr {
        key: "dtype"
        value {
          type: DT_FLOAT
        }
      }
      attr {
        key: "value"
        value {
          tensor {
            dtype: DT_FLOAT
            tensor_shape {
            }
            float_val: 0.0
          }
        }
      }
      experimental_debug_info {
        original_node_names: "count_nonzero/zeros"
      }
    }
    node_def {
      name: "count_nonzero/NotEqual"
      op: "NotEqual"
      input: "count_nonzero_notequal_linear_linear_model_linear_linear_model_linear_linear_model_weighted_sum"
      input: "count_nonzero/zeros:output:0"
      attr {
        key: "T"
        value {
          type: DT_FLOAT
        }
      }
      attr {
        key: "_output_shapes"
        value {
          list {
            shape {
              dim {
                size: -1
              }
              dim {
                size: 30
              }
            }
          }
        }
      }
      attr {
        key: "incompatible_shape_error"
        value {
          b: true
        }
      }
      experimental_debug_info {
        original_node_names: "count_nonzero/NotEqual"
      }
    }
    node_def {
      name: "count_nonzero/Cast"
      op: "Cast"
      input: "count_nonzero/NotEqual:z:0"
      attr {
        key: "DstT"
        value {
          type: DT_INT64
        }
      }
      attr {
        key: "SrcT"
        value {
          type: DT_BOOL
        }
      }
      attr {
        key: "Truncate"
        value {
          b: false
        }
      }
      attr {
        key: "_output_shapes"
        value {
          list {
            shape {
              dim {
                size: -1
              }
              dim {
                size: 30
              }
            }
          }
        }
      }
      experimental_debug_info {
        original_node_names: "count_nonzero/Cast"
      }
    }
    node_def {
      name: "count_nonzero/Const"
      op: "Const"
      attr {
        key: "_output_shapes"
        value {
          list {
            shape {
              dim {
                size: 2
              }
            }
          }
        }
      }
      attr {
        key: "dtype"
        value {
          type: DT_INT32
        }
      }
      attr {
        key: "value"
        value {
          tensor {
            dtype: DT_INT32
            tensor_shape {
              dim {
                size: 2
              }
            }
            tensor_content: "\000\000\000\000\001\000\000\000"
          }
        }
      }
      experimental_debug_info {
        original_node_names: "count_nonzero/Const"
      }
    }
    node_def {
      name: "count_nonzero/nonzero_count"
      op: "Sum"
      input: "count_nonzero/Cast:y:0"
      input: "count_nonzero/Const:output:0"
      attr {
        key: "T"
        value {
          type: DT_INT64
        }
      }
      attr {
        key: "Tidx"
        value {
          type: DT_INT32
        }
      }
      attr {
        key: "_output_shapes"
        value {
          list {
            shape {
            }
          }
        }
      }
      attr {
        key: "keep_dims"
        value {
          b: false
        }
      }
      experimental_debug_info {
        original_node_names: "count_nonzero/nonzero_count"
      }
    }
    ret {
      key: "count_nonzero_nonzero_count"
      value: "count_nonzero/nonzero_count:output:0"
    }
    attr {
      key: "_input_shapes"
      value {
        list {
          shape {
            dim {
              size: -1
            }
            dim {
              size: 30
            }
          }
        }
      }
    }
    arg_attr {
      value {
        attr {
          key: "_output_shapes"
          value {
            list {
              shape {
                dim {
                  size: -1
                }
                dim {
                  size: 30
                }
              }
            }
          }
        }
      }
    }
  }
  function {
    signature {
      name: "head_losses_check_label_range_assert_non_negative_assert_less_equal_Assert_AssertGuard_true_756"
      input_arg {
        name: "identity_head_losses_check_label_range_assert_non_negative_assert_less_equal_all"
        type: DT_BOOL
      }
      input_arg {
        name: "placeholder"
        type: DT_INT64
      }
      output_arg {
        name: "identity"
        type: DT_BOOL
      }
    }
    node_def {
      name: "NoOp"
      op: "NoOp"
      attr {
        key: "_output_shapes"
        value {
          list {
          }
        }
      }
      experimental_debug_info {
        original_node_names: "NoOp"
      }
    }
    node_def {
      name: "Identity"
      op: "Identity"
      input: "identity_head_losses_check_label_range_assert_non_negative_assert_less_equal_all"
      input: "^NoOp"
      attr {
        key: "T"
        value {
          type: DT_BOOL
        }
      }
      attr {
        key: "_output_shapes"
        value {
          list {
            shape {
            }
          }
        }
      }
      experimental_debug_info {
        original_node_names: "Identity"
      }
    }
    ret {
      key: "identity"
      value: "Identity:output:0"
    }
    attr {
      key: "_input_shapes"
      value {
        list {
          shape {
          }
          shape {
            dim {
              size: -1
            }
            dim {
              size: 1
            }
          }
        }
      }
    }
    arg_attr {
      value {
        attr {
          key: "_output_shapes"
          value {
            list {
              shape {
              }
            }
          }
        }
      }
    }
    arg_attr {
      key: 1
      value {
        attr {
          key: "_output_shapes"
          value {
            list {
              shape {
                dim {
                  size: -1
                }
                dim {
                  size: 1
                }
              }
            }
          }
        }
      }
    }
  }
  function {
    signature {
      name: "dnn_zero_fraction_2_cond_true_424"
      input_arg {
        name: "count_nonzero_notequal_dnn_logits_biasadd"
        type: DT_FLOAT
      }
      output_arg {
        name: "cast"
        type: DT_INT64
      }
      output_arg {
        name: "optionalfromvalue"
        type: DT_VARIANT
      }
      output_arg {
        name: "optionalfromvalue_1"
        type: DT_VARIANT
      }
      output_arg {
        name: "optionalfromvalue_2"
        type: DT_VARIANT
      }
      output_arg {
        name: "optionalfromvalue_3"
        type: DT_VARIANT
      }
      output_arg {
        name: "optionalfromvalue_4"
        type: DT_VARIANT
      }
    }
    node_def {
      name: "count_nonzero/zeros"
      op: "Const"
      attr {
        key: "_output_shapes"
        value {
          list {
            shape {
            }
          }
        }
      }
      attr {
        key: "dtype"
        value {
          type: DT_FLOAT
        }
      }
      attr {
        key: "value"
        value {
          tensor {
            dtype: DT_FLOAT
            tensor_shape {
            }
            float_val: 0.0
          }
        }
      }
      experimental_debug_info {
        original_node_names: "count_nonzero/zeros"
      }
    }
    node_def {
      name: "count_nonzero/NotEqual"
      op: "NotEqual"
      input: "count_nonzero_notequal_dnn_logits_biasadd"
      input: "count_nonzero/zeros:output:0"
      attr {
        key: "T"
        value {
          type: DT_FLOAT
        }
      }
      attr {
        key: "_output_shapes"
        value {
          list {
            shape {
              dim {
                size: -1
              }
              dim {
                size: 30
              }
            }
          }
        }
      }
      attr {
        key: "incompatible_shape_error"
        value {
          b: true
        }
      }
      experimental_debug_info {
        original_node_names: "count_nonzero/NotEqual"
      }
    }
    node_def {
      name: "count_nonzero/Cast"
      op: "Cast"
      input: "count_nonzero/NotEqual:z:0"
      attr {
        key: "DstT"
        value {
          type: DT_INT32
        }
      }
      attr {
        key: "SrcT"
        value {
          type: DT_BOOL
        }
      }
      attr {
        key: "Truncate"
        value {
          b: false
        }
      }
      attr {
        key: "_output_shapes"
        value {
          list {
            shape {
              dim {
                size: -1
              }
              dim {
                size: 30
              }
            }
          }
        }
      }
      experimental_debug_info {
        original_node_names: "count_nonzero/Cast"
      }
    }
    node_def {
      name: "count_nonzero/Const"
      op: "Const"
      attr {
        key: "_output_shapes"
        value {
          list {
            shape {
              dim {
                size: 2
              }
            }
          }
        }
      }
      attr {
        key: "dtype"
        value {
          type: DT_INT32
        }
      }
      attr {
        key: "value"
        value {
          tensor {
            dtype: DT_INT32
            tensor_shape {
              dim {
                size: 2
              }
            }
            tensor_content: "\000\000\000\000\001\000\000\000"
          }
        }
      }
      experimental_debug_info {
        original_node_names: "count_nonzero/Const"
      }
    }
    node_def {
      name: "count_nonzero/nonzero_count"
      op: "Sum"
      input: "count_nonzero/Cast:y:0"
      input: "count_nonzero/Const:output:0"
      attr {
        key: "T"
        value {
          type: DT_INT32
        }
      }
      attr {
        key: "Tidx"
        value {
          type: DT_INT32
        }
      }
      attr {
        key: "_output_shapes"
        value {
          list {
            shape {
            }
          }
        }
      }
      attr {
        key: "keep_dims"
        value {
          b: false
        }
      }
      experimental_debug_info {
        original_node_names: "count_nonzero/nonzero_count"
      }
    }
    node_def {
      name: "Cast"
      op: "Cast"
      input: "count_nonzero/nonzero_count:output:0"
      attr {
        key: "DstT"
        value {
          type: DT_INT64
        }
      }
      attr {
        key: "SrcT"
        value {
          type: DT_INT32
        }
      }
      attr {
        key: "Truncate"
        value {
          b: false
        }
      }
      attr {
        key: "_output_shapes"
        value {
          list {
            shape {
            }
          }
        }
      }
      experimental_debug_info {
        original_node_names: "Cast"
      }
    }
    node_def {
      name: "OptionalFromValue"
      op: "OptionalFromValue"
      input: "count_nonzero/zeros:output:0"
      attr {
        key: "Toutput_types"
        value {
          list {
            type: DT_FLOAT
          }
        }
      }
      attr {
        key: "_output_shapes"
        value {
          list {
            shape {
            }
          }
        }
      }
      experimental_debug_info {
        original_node_names: "OptionalFromValue"
      }
    }
    node_def {
      name: "OptionalFromValue_1"
      op: "OptionalFromValue"
      input: "count_nonzero/NotEqual:z:0"
      attr {
        key: "Toutput_types"
        value {
          list {
            type: DT_BOOL
          }
        }
      }
      attr {
        key: "_output_shapes"
        value {
          list {
            shape {
            }
          }
        }
      }
      experimental_debug_info {
        original_node_names: "OptionalFromValue_1"
      }
    }
    node_def {
      name: "OptionalFromValue_2"
      op: "OptionalFromValue"
      input: "count_nonzero/Cast:y:0"
      attr {
        key: "Toutput_types"
        value {
          list {
            type: DT_INT32
          }
        }
      }
      attr {
        key: "_output_shapes"
        value {
          list {
            shape {
            }
          }
        }
      }
      experimental_debug_info {
        original_node_names: "OptionalFromValue_2"
      }
    }
    node_def {
      name: "OptionalFromValue_3"
      op: "OptionalFromValue"
      input: "count_nonzero/Const:output:0"
      attr {
        key: "Toutput_types"
        value {
          list {
            type: DT_INT32
          }
        }
      }
      attr {
        key: "_output_shapes"
        value {
          list {
            shape {
            }
          }
        }
      }
      experimental_debug_info {
        original_node_names: "OptionalFromValue_3"
      }
    }
    node_def {
      name: "OptionalFromValue_4"
      op: "OptionalFromValue"
      input: "count_nonzero/nonzero_count:output:0"
      attr {
        key: "Toutput_types"
        value {
          list {
            type: DT_INT32
          }
        }
      }
      attr {
        key: "_output_shapes"
        value {
          list {
            shape {
            }
          }
        }
      }
      experimental_debug_info {
        original_node_names: "OptionalFromValue_4"
      }
    }
    ret {
      key: "cast"
      value: "Cast:y:0"
    }
    ret {
      key: "optionalfromvalue"
      value: "OptionalFromValue:optional:0"
    }
    ret {
      key: "optionalfromvalue_1"
      value: "OptionalFromValue_1:optional:0"
    }
    ret {
      key: "optionalfromvalue_2"
      value: "OptionalFromValue_2:optional:0"
    }
    ret {
      key: "optionalfromvalue_3"
      value: "OptionalFromValue_3:optional:0"
    }
    ret {
      key: "optionalfromvalue_4"
      value: "OptionalFromValue_4:optional:0"
    }
    attr {
      key: "_input_shapes"
      value {
        list {
          shape {
            dim {
              size: -1
            }
            dim {
              size: 30
            }
          }
        }
      }
    }
    arg_attr {
      value {
        attr {
          key: "_output_shapes"
          value {
            list {
              shape {
                dim {
                  size: -1
                }
                dim {
                  size: 30
                }
              }
            }
          }
        }
      }
    }
  }
  function {
    signature {
      name: "zero_fraction_total_zero_zero_count_true_570"
      input_arg {
        name: "placeholder"
        type: DT_RESOURCE
      }
      input_arg {
        name: "placeholder_1"
        type: DT_INT64
      }
      output_arg {
        name: "const"
        type: DT_FLOAT
      }
    }
    node_def {
      name: "Const"
      op: "Const"
      attr {
        key: "_output_shapes"
        value {
          list {
            shape {
            }
          }
        }
      }
      attr {
        key: "dtype"
        value {
          type: DT_FLOAT
        }
      }
      attr {
        key: "value"
        value {
          tensor {
            dtype: DT_FLOAT
            tensor_shape {
            }
            float_val: 0.0
          }
        }
      }
      experimental_debug_info {
        original_node_names: "Const"
      }
    }
    ret {
      key: "const"
      value: "Const:output:0"
    }
    attr {
      key: "_input_shapes"
      value {
        list {
          shape {
            unknown_rank: true
          }
          shape {
          }
        }
      }
    }
    arg_attr {
      value {
        attr {
          key: "_output_shapes"
          value {
            list {
              shape {
              }
            }
          }
        }
      }
    }
    arg_attr {
      key: 1
      value {
        attr {
          key: "_output_shapes"
          value {
            list {
              shape {
              }
            }
          }
        }
      }
    }
  }
  function {
    signature {
      name: "zero_fraction_1_cond_true_619"
      input_arg {
        name: "count_nonzero_notequal_linear_linear_model_linear_linear_model_linear_linear_model_weighted_sum"
        type: DT_FLOAT
      }
      output_arg {
        name: "cast"
        type: DT_INT64
      }
    }
    node_def {
      name: "count_nonzero/zeros"
      op: "Const"
      attr {
        key: "_output_shapes"
        value {
          list {
            shape {
            }
          }
        }
      }
      attr {
        key: "dtype"
        value {
          type: DT_FLOAT
        }
      }
      attr {
        key: "value"
        value {
          tensor {
            dtype: DT_FLOAT
            tensor_shape {
            }
            float_val: 0.0
          }
        }
      }
      experimental_debug_info {
        original_node_names: "count_nonzero/zeros"
      }
    }
    node_def {
      name: "count_nonzero/NotEqual"
      op: "NotEqual"
      input: "count_nonzero_notequal_linear_linear_model_linear_linear_model_linear_linear_model_weighted_sum"
      input: "count_nonzero/zeros:output:0"
      attr {
        key: "T"
        value {
          type: DT_FLOAT
        }
      }
      attr {
        key: "_output_shapes"
        value {
          list {
            shape {
              dim {
                size: -1
              }
              dim {
                size: 30
              }
            }
          }
        }
      }
      attr {
        key: "incompatible_shape_error"
        value {
          b: true
        }
      }
      experimental_debug_info {
        original_node_names: "count_nonzero/NotEqual"
      }
    }
    node_def {
      name: "count_nonzero/Cast"
      op: "Cast"
      input: "count_nonzero/NotEqual:z:0"
      attr {
        key: "DstT"
        value {
          type: DT_INT32
        }
      }
      attr {
        key: "SrcT"
        value {
          type: DT_BOOL
        }
      }
      attr {
        key: "Truncate"
        value {
          b: false
        }
      }
      attr {
        key: "_output_shapes"
        value {
          list {
            shape {
              dim {
                size: -1
              }
              dim {
                size: 30
              }
            }
          }
        }
      }
      experimental_debug_info {
        original_node_names: "count_nonzero/Cast"
      }
    }
    node_def {
      name: "count_nonzero/Const"
      op: "Const"
      attr {
        key: "_output_shapes"
        value {
          list {
            shape {
              dim {
                size: 2
              }
            }
          }
        }
      }
      attr {
        key: "dtype"
        value {
          type: DT_INT32
        }
      }
      attr {
        key: "value"
        value {
          tensor {
            dtype: DT_INT32
            tensor_shape {
              dim {
                size: 2
              }
            }
            tensor_content: "\000\000\000\000\001\000\000\000"
          }
        }
      }
      experimental_debug_info {
        original_node_names: "count_nonzero/Const"
      }
    }
    node_def {
      name: "count_nonzero/nonzero_count"
      op: "Sum"
      input: "count_nonzero/Cast:y:0"
      input: "count_nonzero/Const:output:0"
      attr {
        key: "T"
        value {
          type: DT_INT32
        }
      }
      attr {
        key: "Tidx"
        value {
          type: DT_INT32
        }
      }
      attr {
        key: "_output_shapes"
        value {
          list {
            shape {
            }
          }
        }
      }
      attr {
        key: "keep_dims"
        value {
          b: false
        }
      }
      experimental_debug_info {
        original_node_names: "count_nonzero/nonzero_count"
      }
    }
    node_def {
      name: "Cast"
      op: "Cast"
      input: "count_nonzero/nonzero_count:output:0"
      attr {
        key: "DstT"
        value {
          type: DT_INT64
        }
      }
      attr {
        key: "SrcT"
        value {
          type: DT_INT32
        }
      }
      attr {
        key: "Truncate"
        value {
          b: false
        }
      }
      attr {
        key: "_output_shapes"
        value {
          list {
            shape {
            }
          }
        }
      }
      experimental_debug_info {
        original_node_names: "Cast"
      }
    }
    ret {
      key: "cast"
      value: "Cast:y:0"
    }
    attr {
      key: "_input_shapes"
      value {
        list {
          shape {
            dim {
              size: -1
            }
            dim {
              size: 30
            }
          }
        }
      }
    }
    arg_attr {
      value {
        attr {
          key: "_output_shapes"
          value {
            list {
              shape {
                dim {
                  size: -1
                }
                dim {
                  size: 30
                }
              }
            }
          }
        }
      }
    }
  }
  function {
    signature {
      name: "head_losses_check_label_range_assert_less_equal_Assert_AssertGuard_false_732"
      input_arg {
        name: "assert_head_losses_check_label_range_assert_less_equal_all"
        type: DT_BOOL
      }
      input_arg {
        name: "assert_head_losses_hash_table_lookup_lookuptablefindv2"
        type: DT_INT64
      }
      input_arg {
        name: "assert_head_losses_check_label_range_const"
        type: DT_INT64
      }
      output_arg {
        name: "identity"
        type: DT_BOOL
      }
      is_stateful: true
    }
    node_def {
      name: "Assert/data_0"
      op: "Const"
      attr {
        key: "_output_shapes"
        value {
          list {
            shape {
            }
          }
        }
      }
      attr {
        key: "dtype"
        value {
          type: DT_STRING
        }
      }
      attr {
        key: "value"
        value {
          tensor {
            dtype: DT_STRING
            tensor_shape {
            }
            string_val: "Labels must be <= n_classes - 1"
          }
        }
      }
      experimental_debug_info {
        original_node_names: "Assert/data_0"
      }
    }
    node_def {
      name: "Assert/data_1"
      op: "Const"
      attr {
        key: "_output_shapes"
        value {
          list {
            shape {
            }
          }
        }
      }
      attr {
        key: "dtype"
        value {
          type: DT_STRING
        }
      }
      attr {
        key: "value"
        value {
          tensor {
            dtype: DT_STRING
            tensor_shape {
            }
            string_val: "Condition x <= y did not hold element-wise:"
          }
        }
      }
      experimental_debug_info {
        original_node_names: "Assert/data_1"
      }
    }
    node_def {
      name: "Assert/data_2"
      op: "Const"
      attr {
        key: "_output_shapes"
        value {
          list {
            shape {
            }
          }
        }
      }
      attr {
        key: "dtype"
        value {
          type: DT_STRING
        }
      }
      attr {
        key: "value"
        value {
          tensor {
            dtype: DT_STRING
            tensor_shape {
            }
            string_val: "x (head/losses/hash_table_Lookup/LookupTableFindV2:0) = "
          }
        }
      }
      experimental_debug_info {
        original_node_names: "Assert/data_2"
      }
    }
    node_def {
      name: "Assert/data_4"
      op: "Const"
      attr {
        key: "_output_shapes"
        value {
          list {
            shape {
            }
          }
        }
      }
      attr {
        key: "dtype"
        value {
          type: DT_STRING
        }
      }
      attr {
        key: "value"
        value {
          tensor {
            dtype: DT_STRING
            tensor_shape {
            }
            string_val: "y (head/losses/check_label_range/Const:0) = "
          }
        }
      }
      experimental_debug_info {
        original_node_names: "Assert/data_4"
      }
    }
    node_def {
      name: "Assert"
      op: "Assert"
      input: "assert_head_losses_check_label_range_assert_less_equal_all"
      input: "Assert/data_0:output:0"
      input: "Assert/data_1:output:0"
      input: "Assert/data_2:output:0"
      input: "assert_head_losses_hash_table_lookup_lookuptablefindv2"
      input: "Assert/data_4:output:0"
      input: "assert_head_losses_check_label_range_const"
      attr {
        key: "T"
        value {
          list {
            type: DT_STRING
            type: DT_STRING
            type: DT_STRING
            type: DT_INT64
            type: DT_STRING
            type: DT_INT64
          }
        }
      }
      attr {
        key: "_output_shapes"
        value {
          list {
          }
        }
      }
      attr {
        key: "summarize"
        value {
          i: 3
        }
      }
      experimental_debug_info {
        original_node_names: "Assert"
      }
    }
    node_def {
      name: "Identity"
      op: "Identity"
      input: "assert_head_losses_check_label_range_assert_less_equal_all"
      input: "^Assert"
      attr {
        key: "T"
        value {
          type: DT_BOOL
        }
      }
      attr {
        key: "_output_shapes"
        value {
          list {
            shape {
            }
          }
        }
      }
      experimental_debug_info {
        original_node_names: "Identity"
      }
    }
    ret {
      key: "identity"
      value: "Identity:output:0"
    }
    attr {
      key: "_input_shapes"
      value {
        list {
          shape {
          }
          shape {
            dim {
              size: -1
            }
            dim {
              size: 1
            }
          }
          shape {
          }
        }
      }
    }
    arg_attr {
      value {
        attr {
          key: "_output_shapes"
          value {
            list {
              shape {
              }
            }
          }
        }
      }
    }
    arg_attr {
      key: 1
      value {
        attr {
          key: "_output_shapes"
          value {
            list {
              shape {
                dim {
                  size: -1
                }
                dim {
                  size: 1
                }
              }
            }
          }
        }
      }
    }
    arg_attr {
      key: 2
      value {
        attr {
          key: "_output_shapes"
          value {
            list {
              shape {
              }
            }
          }
        }
      }
    }
  }
  function {
    signature {
      name: "dnn_zero_fraction_2_cond_false_425"
      input_arg {
        name: "count_nonzero_notequal_dnn_logits_biasadd"
        type: DT_FLOAT
      }
      output_arg {
        name: "count_nonzero_nonzero_count"
        type: DT_INT64
      }
      output_arg {
        name: "optionalfromvalue"
        type: DT_VARIANT
      }
      output_arg {
        name: "optionalfromvalue_1"
        type: DT_VARIANT
      }
      output_arg {
        name: "optionalfromvalue_2"
        type: DT_VARIANT
      }
      output_arg {
        name: "optionalfromvalue_3"
        type: DT_VARIANT
      }
      output_arg {
        name: "optionalnone"
        type: DT_VARIANT
      }
    }
    node_def {
      name: "count_nonzero/zeros"
      op: "Const"
      attr {
        key: "_output_shapes"
        value {
          list {
            shape {
            }
          }
        }
      }
      attr {
        key: "dtype"
        value {
          type: DT_FLOAT
        }
      }
      attr {
        key: "value"
        value {
          tensor {
            dtype: DT_FLOAT
            tensor_shape {
            }
            float_val: 0.0
          }
        }
      }
      experimental_debug_info {
        original_node_names: "count_nonzero/zeros"
      }
    }
    node_def {
      name: "count_nonzero/NotEqual"
      op: "NotEqual"
      input: "count_nonzero_notequal_dnn_logits_biasadd"
      input: "count_nonzero/zeros:output:0"
      attr {
        key: "T"
        value {
          type: DT_FLOAT
        }
      }
      attr {
        key: "_output_shapes"
        value {
          list {
            shape {
              dim {
                size: -1
              }
              dim {
                size: 30
              }
            }
          }
        }
      }
      attr {
        key: "incompatible_shape_error"
        value {
          b: true
        }
      }
      experimental_debug_info {
        original_node_names: "count_nonzero/NotEqual"
      }
    }
    node_def {
      name: "count_nonzero/Cast"
      op: "Cast"
      input: "count_nonzero/NotEqual:z:0"
      attr {
        key: "DstT"
        value {
          type: DT_INT64
        }
      }
      attr {
        key: "SrcT"
        value {
          type: DT_BOOL
        }
      }
      attr {
        key: "Truncate"
        value {
          b: false
        }
      }
      attr {
        key: "_output_shapes"
        value {
          list {
            shape {
              dim {
                size: -1
              }
              dim {
                size: 30
              }
            }
          }
        }
      }
      experimental_debug_info {
        original_node_names: "count_nonzero/Cast"
      }
    }
    node_def {
      name: "count_nonzero/Const"
      op: "Const"
      attr {
        key: "_output_shapes"
        value {
          list {
            shape {
              dim {
                size: 2
              }
            }
          }
        }
      }
      attr {
        key: "dtype"
        value {
          type: DT_INT32
        }
      }
      attr {
        key: "value"
        value {
          tensor {
            dtype: DT_INT32
            tensor_shape {
              dim {
                size: 2
              }
            }
            tensor_content: "\000\000\000\000\001\000\000\000"
          }
        }
      }
      experimental_debug_info {
        original_node_names: "count_nonzero/Const"
      }
    }
    node_def {
      name: "count_nonzero/nonzero_count"
      op: "Sum"
      input: "count_nonzero/Cast:y:0"
      input: "count_nonzero/Const:output:0"
      attr {
        key: "T"
        value {
          type: DT_INT64
        }
      }
      attr {
        key: "Tidx"
        value {
          type: DT_INT32
        }
      }
      attr {
        key: "_output_shapes"
        value {
          list {
            shape {
            }
          }
        }
      }
      attr {
        key: "keep_dims"
        value {
          b: false
        }
      }
      experimental_debug_info {
        original_node_names: "count_nonzero/nonzero_count"
      }
    }
    node_def {
      name: "OptionalFromValue"
      op: "OptionalFromValue"
      input: "count_nonzero/zeros:output:0"
      attr {
        key: "Toutput_types"
        value {
          list {
            type: DT_FLOAT
          }
        }
      }
      attr {
        key: "_output_shapes"
        value {
          list {
            shape {
            }
          }
        }
      }
      experimental_debug_info {
        original_node_names: "OptionalFromValue"
      }
    }
    node_def {
      name: "OptionalFromValue_1"
      op: "OptionalFromValue"
      input: "count_nonzero/NotEqual:z:0"
      attr {
        key: "Toutput_types"
        value {
          list {
            type: DT_BOOL
          }
        }
      }
      attr {
        key: "_output_shapes"
        value {
          list {
            shape {
            }
          }
        }
      }
      experimental_debug_info {
        original_node_names: "OptionalFromValue_1"
      }
    }
    node_def {
      name: "OptionalFromValue_2"
      op: "OptionalFromValue"
      input: "count_nonzero/Cast:y:0"
      attr {
        key: "Toutput_types"
        value {
          list {
            type: DT_INT64
          }
        }
      }
      attr {
        key: "_output_shapes"
        value {
          list {
            shape {
            }
          }
        }
      }
      experimental_debug_info {
        original_node_names: "OptionalFromValue_2"
      }
    }
    node_def {
      name: "OptionalFromValue_3"
      op: "OptionalFromValue"
      input: "count_nonzero/Const:output:0"
      attr {
        key: "Toutput_types"
        value {
          list {
            type: DT_INT32
          }
        }
      }
      attr {
        key: "_output_shapes"
        value {
          list {
            shape {
            }
          }
        }
      }
      experimental_debug_info {
        original_node_names: "OptionalFromValue_3"
      }
    }
    node_def {
      name: "OptionalNone"
      op: "OptionalNone"
      attr {
        key: "_output_shapes"
        value {
          list {
            shape {
            }
          }
        }
      }
      experimental_debug_info {
        original_node_names: "OptionalNone"
      }
    }
    ret {
      key: "count_nonzero_nonzero_count"
      value: "count_nonzero/nonzero_count:output:0"
    }
    ret {
      key: "optionalfromvalue"
      value: "OptionalFromValue:optional:0"
    }
    ret {
      key: "optionalfromvalue_1"
      value: "OptionalFromValue_1:optional:0"
    }
    ret {
      key: "optionalfromvalue_2"
      value: "OptionalFromValue_2:optional:0"
    }
    ret {
      key: "optionalfromvalue_3"
      value: "OptionalFromValue_3:optional:0"
    }
    ret {
      key: "optionalnone"
      value: "OptionalNone:optional:0"
    }
    attr {
      key: "_input_shapes"
      value {
        list {
          shape {
            dim {
              size: -1
            }
            dim {
              size: 30
            }
          }
        }
      }
    }
    arg_attr {
      value {
        attr {
          key: "_output_shapes"
          value {
            list {
              shape {
                dim {
                  size: -1
                }
                dim {
                  size: 30
                }
              }
            }
          }
        }
      }
    }
  }
  function {
    signature {
      name: "dnn_zero_fraction_cond_false_278"
      input_arg {
        name: "count_nonzero_notequal_dnn_dropout_dropout_mul_1"
        type: DT_FLOAT
      }
      output_arg {
        name: "count_nonzero_nonzero_count"
        type: DT_INT64
      }
      output_arg {
        name: "optionalfromvalue"
        type: DT_VARIANT
      }
      output_arg {
        name: "optionalfromvalue_1"
        type: DT_VARIANT
      }
      output_arg {
        name: "optionalfromvalue_2"
        type: DT_VARIANT
      }
      output_arg {
        name: "optionalfromvalue_3"
        type: DT_VARIANT
      }
      output_arg {
        name: "optionalnone"
        type: DT_VARIANT
      }
    }
    node_def {
      name: "count_nonzero/zeros"
      op: "Const"
      attr {
        key: "_output_shapes"
        value {
          list {
            shape {
            }
          }
        }
      }
      attr {
        key: "dtype"
        value {
          type: DT_FLOAT
        }
      }
      attr {
        key: "value"
        value {
          tensor {
            dtype: DT_FLOAT
            tensor_shape {
            }
            float_val: 0.0
          }
        }
      }
      experimental_debug_info {
        original_node_names: "count_nonzero/zeros"
      }
    }
    node_def {
      name: "count_nonzero/NotEqual"
      op: "NotEqual"
      input: "count_nonzero_notequal_dnn_dropout_dropout_mul_1"
      input: "count_nonzero/zeros:output:0"
      attr {
        key: "T"
        value {
          type: DT_FLOAT
        }
      }
      attr {
        key: "_output_shapes"
        value {
          list {
            shape {
              dim {
                size: -1
              }
              dim {
                size: 512
              }
            }
          }
        }
      }
      attr {
        key: "incompatible_shape_error"
        value {
          b: true
        }
      }
      experimental_debug_info {
        original_node_names: "count_nonzero/NotEqual"
      }
    }
    node_def {
      name: "count_nonzero/Cast"
      op: "Cast"
      input: "count_nonzero/NotEqual:z:0"
      attr {
        key: "DstT"
        value {
          type: DT_INT64
        }
      }
      attr {
        key: "SrcT"
        value {
          type: DT_BOOL
        }
      }
      attr {
        key: "Truncate"
        value {
          b: false
        }
      }
      attr {
        key: "_output_shapes"
        value {
          list {
            shape {
              dim {
                size: -1
              }
              dim {
                size: 512
              }
            }
          }
        }
      }
      experimental_debug_info {
        original_node_names: "count_nonzero/Cast"
      }
    }
    node_def {
      name: "count_nonzero/Const"
      op: "Const"
      attr {
        key: "_output_shapes"
        value {
          list {
            shape {
              dim {
                size: 2
              }
            }
          }
        }
      }
      attr {
        key: "dtype"
        value {
          type: DT_INT32
        }
      }
      attr {
        key: "value"
        value {
          tensor {
            dtype: DT_INT32
            tensor_shape {
              dim {
                size: 2
              }
            }
            tensor_content: "\000\000\000\000\001\000\000\000"
          }
        }
      }
      experimental_debug_info {
        original_node_names: "count_nonzero/Const"
      }
    }
    node_def {
      name: "count_nonzero/nonzero_count"
      op: "Sum"
      input: "count_nonzero/Cast:y:0"
      input: "count_nonzero/Const:output:0"
      attr {
        key: "T"
        value {
          type: DT_INT64
        }
      }
      attr {
        key: "Tidx"
        value {
          type: DT_INT32
        }
      }
      attr {
        key: "_output_shapes"
        value {
          list {
            shape {
            }
          }
        }
      }
      attr {
        key: "keep_dims"
        value {
          b: false
        }
      }
      experimental_debug_info {
        original_node_names: "count_nonzero/nonzero_count"
      }
    }
    node_def {
      name: "OptionalFromValue"
      op: "OptionalFromValue"
      input: "count_nonzero/zeros:output:0"
      attr {
        key: "Toutput_types"
        value {
          list {
            type: DT_FLOAT
          }
        }
      }
      attr {
        key: "_output_shapes"
        value {
          list {
            shape {
            }
          }
        }
      }
      experimental_debug_info {
        original_node_names: "OptionalFromValue"
      }
    }
    node_def {
      name: "OptionalFromValue_1"
      op: "OptionalFromValue"
      input: "count_nonzero/NotEqual:z:0"
      attr {
        key: "Toutput_types"
        value {
          list {
            type: DT_BOOL
          }
        }
      }
      attr {
        key: "_output_shapes"
        value {
          list {
            shape {
            }
          }
        }
      }
      experimental_debug_info {
        original_node_names: "OptionalFromValue_1"
      }
    }
    node_def {
      name: "OptionalFromValue_2"
      op: "OptionalFromValue"
      input: "count_nonzero/Cast:y:0"
      attr {
        key: "Toutput_types"
        value {
          list {
            type: DT_INT64
          }
        }
      }
      attr {
        key: "_output_shapes"
        value {
          list {
            shape {
            }
          }
        }
      }
      experimental_debug_info {
        original_node_names: "OptionalFromValue_2"
      }
    }
    node_def {
      name: "OptionalFromValue_3"
      op: "OptionalFromValue"
      input: "count_nonzero/Const:output:0"
      attr {
        key: "Toutput_types"
        value {
          list {
            type: DT_INT32
          }
        }
      }
      attr {
        key: "_output_shapes"
        value {
          list {
            shape {
            }
          }
        }
      }
      experimental_debug_info {
        original_node_names: "OptionalFromValue_3"
      }
    }
    node_def {
      name: "OptionalNone"
      op: "OptionalNone"
      attr {
        key: "_output_shapes"
        value {
          list {
            shape {
            }
          }
        }
      }
      experimental_debug_info {
        original_node_names: "OptionalNone"
      }
    }
    ret {
      key: "count_nonzero_nonzero_count"
      value: "count_nonzero/nonzero_count:output:0"
    }
    ret {
      key: "optionalfromvalue"
      value: "OptionalFromValue:optional:0"
    }
    ret {
      key: "optionalfromvalue_1"
      value: "OptionalFromValue_1:optional:0"
    }
    ret {
      key: "optionalfromvalue_2"
      value: "OptionalFromValue_2:optional:0"
    }
    ret {
      key: "optionalfromvalue_3"
      value: "OptionalFromValue_3:optional:0"
    }
    ret {
      key: "optionalnone"
      value: "OptionalNone:optional:0"
    }
    attr {
      key: "_input_shapes"
      value {
        list {
          shape {
            dim {
              size: -1
            }
            dim {
              size: 512
            }
          }
        }
      }
    }
    arg_attr {
      value {
        attr {
          key: "_output_shapes"
          value {
            list {
              shape {
                dim {
                  size: -1
                }
                dim {
                  size: 512
                }
              }
            }
          }
        }
      }
    }
  }
}
versions {
  producer: 175
  min_consumer: 12
}
